gnn_model/0718_08_32__GNN_params.pth (torch, 13963 bytes, 28 tensors)

convs.0.att f4 [1, 1, 14]
00000000: 7a83 143e 4357 043e fa2a 203e 6a7f c53d
00000010: 97fd cd3d 3e05 84be 69d1 193e 10df 403e
00000020: 2ad7 72bc 4887 aa3f 6e86 c4bd de2b 59be
00000030: 11eb fbbd 7f53 abbe
0.1450328 0.12923913 0.15641394 0.09643443 0.10058134 -0.2578525 0.1502129 0.18835092
-0.014821807 1.3322535 -0.09595953 -0.2120814 -0.12300695 -0.3346214

convs.0.bias f4 [14]
00000000: 9942 4e40 eb69 b23e aab2 acbd 4399 0b3f
00000010: 43d0 2940 5e4b debd bb8f d13f 17f4 b3bc
00000020: 8f85 543f 2f25 14c0 f56e dd3f 316c 1140
00000030: 716e 6d3e 0000 0000
3.2228148 0.34846434 -0.08432515 0.54530734 2.6533363 -0.10854219 1.6371988 -0.021966977
0.83016294 -2.3147695 1.7299486 2.2722285 0.23186661 0.0

convs.0.lin_l.weight f4 [14, 14]
00000000: 5f3c 393f 25c1 f2bd 604d f5bd ef2c 74bb
00000010: 6763 243e 0db7 2e3c 43ef 41be 0b60 913d
00000020: 2635 0b3d c794 5e3e 13ab 303d 9e20 b13d
00000030: 961a 85be d642 8f3f c781 00bf 6fc8 223e
00000040: 4fc6 063e 08f8 383e 2c90 2b3e 788b 033e
00000050: 3f24 813e 69ab 933d 31fe 2abc a8fa dd3d
00000060: df7b 173e 5bf8 063e 08f0 393e 5f15 04be
00000070: ea8b 783e 1510 ccbe edfa c73d 2276 5fbb
00000080: 4ce8 0f3e 38b2 c4bf a026 c13d 6985 18bd
00000090: c249 9fbe f975 6fbe 4fad 233d 0d10 a2bd
000000a0: 6427 083e 60eb bb3c 137c b73e 7e17 a3be
000000b0: 9fa2 5cbe 01be 91bd f630 543e 0fda 9bbc
000000c0: beb5 cbbe 0fbc 403e 6e7d 0d3e bd79 2c3e
000000d0: 67fe 3d3e 7967 87be b673 2fbd d049 fb3e
000000e0: 4374 823f 32fd 0c3e 6d44 f5bc 8f13 87be
000000f0: 80df 8abe 2aa0 033d 91b5 81be ea24 b03d
00000100: cfcd a03e a84f 393e 1807 ab3d 06f0 45bc
00000110: 5c82 89be 98a8 533e 6e51 9d3e d4b5 cabe
00000120: 62af 95be b5a1 11bf 331a d9be 9d41 693e
00000130: b6ec e7be 834b d7be 839e e53d fa1c 833e
00000140: 56eb e13d 77ca 8dbe 9e79 013e 4640 753d
00000150: be88 07bf 16a9 843e 7b12 843e 8e50 3c3e
00000160: e4f3 2a3e 9cc7 413e 4342 a53e acdd aa3d
00000170: a73c d43d eb02 ae3c b71e 923d a262 083e
00000180: f17f a33e 1d88 c2be 5b64 13bf d1a0 81be
00000190: 8560 153e 5897 1f3e 2d82 cf3a 201c 8e3d
000001a0: 441a c83d b4a8 83be 727f 54be 0625 1cbe
000001b0: e4e6 6c3e 3690 c5bd 21d1 493e 49ba acbe
000001c0: e77e 073f 9ce3 4ebe 9659 863e cf7b 2fbe
000001d0: 9006 37bc 0584 debe d2f8 903d 894e 03bf
000001e0: 6164 49be a5e6 313e a808 7dbe 0a6e 283e
000001f0: e799 bd3e 12ed dc3e 8d40 473f 77db 443e
00000200: 89cd 70be ae5b 88be a808 ed3d 666b 2f3e
00000210: 6221 48be a3a8 c03d aeed 633e 3e9f cd3e
00000220: de59 08bc 48f7 8c3e 4fee d6be c4ef 24c0
00000230: 3804 733f eac4 5dbf 57d6 6c3c 72b1 3cbf
00000240: b606 82be b2c2 7cbe 81c7 25be 7a1a 333e
00000250: 1dbd e13e aa70 ae3e 5f90 42be 3ee4 263d
00000260: 845e 873e 43cc 933f 1a0c 0c3f eaf5 ad3d
00000270: d59c da3d 77f3 833d 50d2 193e 0cda c43d
00000280: 18a2 e6bc 0e26 f13d 09fc 423e c179 1b3e
00000290: d8fb f73d 94c3 8c3d 9962 dcbc 580c 233f
000002a0: 9e59 a93e 0e09 b4bd 3a42 cebe c085 66ba
000002b0: 5853 033e 4718 88bc 087d 41bf 72c4 3e3e
000002c0: f99c 10bd 1b53 5b3e d9d5 e83e d61e bdbe
000002d0: 31d2 c2be c9ad 6c3e c00a 49be 22fc 5ebe
000002e0: 9865 eebd 6e50 79be 2ad5 e2be 8d15 0fbd
000002f0: f70b dbbe ad20 82be 5b30 a63e 3a6c 8bbd
00000300: d915 b33e e814 dabe 6d86 8fbe 4abe d3be
0.72357744 -0.11853246 -0.11977649 -0.0037258228 0.16053544 0.01066376 -0.18938927 0.07098397
0.033986233 0.21736442 0.0431319 0.08648799 -0.25996846 1.1192272 -0.50198025 0.15896772
0.13161586 0.18063366 0.16754216 0.12846172 0.25222966 0.07210428 -0.0104365805 0.108388245
0.14793347 0.13180678 0.18157971 -0.12898777 0.24272123 -0.3985602 0.09764657 -0.0034097512
0.14053458 -1.5366888 0.09431195 -0.037236605 -0.3111096 -0.23384847 0.0399602 -0.07913218
0.13296276 0.022939384 0.3583685 -0.3185386 -0.2154641 -0.071163185 0.20721802 -0.019024877
-0.39787096 0.18821739 0.13817379 0.16843314 0.18554078 -0.2644613 -0.04283496 0.49079752
1.019173 0.13768461 -0.029939855 -0.2638211 -0.27123642 0.032135166 -0.25333837 0.08600791
0.3140702 0.18096793 0.083509624 -0.012081152 -0.2685727 0.20669782 0.30726188 -0.3959185
-0.2923537 -0.5688737 -0.424028 0.22778936 -0.45297784 -0.42049798 0.11211874 0.25608045
0.11031215 -0.2769353 0.1264405 0.05987575 -0.52943027 0.25910252 0.2579535 0.18390104
0.166946 0.18923801 0.32277116 0.08343062 0.10363131 0.021241626 0.07134765 0.13318875
0.3193355 -0.3799447 -0.57575005 -0.25318006 0.145876 0.15585077 0.0015831642 0.06938958
0.09770635 -0.25714648 -0.20751742 -0.15248498 0.23134953 -0.09646647 0.19708683 -0.33735874
0.5292801 -0.20204014 0.26240224 -0.17137073 -0.011170998 -0.43460098 0.07078709 -0.5129171
-0.19667198 0.1737314 -0.24710333 0.16448227 0.3703148 0.4314962 0.7783287 0.19224344
-0.23515905 -0.26632446 0.11573917 0.17130813 -0.19543985 0.09407165 0.22258636 0.40160555
-0.008322207 0.2753241 -0.4197869 -2.5771341 0.9492831 -0.8662859 0.0144553995 -0.7370826
-0.25395745 -0.24683645 -0.16189386 0.17490569 0.44089594 0.3407033 -0.19000386 0.040745012
0.26439297 1.1546711 0.54705966 0.0849417 0.106744446 0.064429216 0.15021634 0.09611902
-0.028153464 0.117748365 0.19041456 0.15183164 0.12108582 0.06873241 -0.026902484 0.6369071
0.33076185 -0.087907895 -0.40284902 -0.0008793734 0.12824762 -0.016613139 -0.7558141 0.18629625
-0.03530595 0.21418421 0.45475653 -0.36937588 -0.38050988 0.23113169 -0.19633007 -0.21775869
-0.11640471 -0.24347088 -0.44303256 -0.03493266 -0.42782566 -0.25415555 0.32458767 -0.06807752
0.34977606 -0.42594075 -0.28032246 -0.41356117

convs.0.lin_l.bias f4 [14]
00000000: acaf 5e40 aa0c 1d3f ef07 5f3e f9a6 163f
00000010: 108b 3640 3df0 a4be c9f6 aa3f ca6e 1fbf
00000020: 5597 0e3f 544d 04c0 1219 eb3f 10b3 0840
00000030: 659c b93c 34a2 003e
3.4794722 0.6134745 0.2178037 0.5884853 2.8522377 -0.32214537 1.3356563 -0.62278426
0.55699664 -2.0672197 1.8367026 2.135929 0.022657583 0.12561876

convs.0.lin_r.weight f4 [14, 14]
00000000: 64e7 d0be 3b87 c2be 95ad f73b cee2 5cbe
00000010: 810c e1be 2bcb d33e f589 0fbe 7bcd 993d
00000020: dbe7 983d d127 643e ec0a af3d fe74 cd3c
00000030: e5d6 a13e 3e43 bbbe c261 993e 54a3 163f
00000040: b034 90be ff0d e7bd 4c63 5ebe 03c6 6b3e
00000050: be1c c4be 4cb1 d5be b5ef a43e 44c6 94bd
00000060: e99a c23e ba94 7cbe 9d17 7fbd 679c 62bd
00000070: 57d7 ad3c 74cd 473e 4aff e2bd ab33 a23e
00000080: 08be 62be 4b83 81bf fbf9 36be c197 05be
00000090: df3e 953d 85aa 22bd 7d44 b73e 0ba8 cbbe
000000a0: dc09 bf3e 6600 a9bd bb3f 503f b7df dc3e
000000b0: 53d2 283e 49fb 2f3e 518e bc3e e8f0 113d
000000c0: 0b70 9ebe f0fe 47bd e2a4 8cbd 1b42 af3d
000000d0: f409 18be 4e6f 5cbd 62c4 0cbe 2f88 973e
000000e0: 6cc1 abbd 5204 493f 4ab2 213d 9e5f 43be
000000f0: 7b3d 7b3e d8d0 8abd a5d8 ecbd ebb9 b03d
00000100: 8c0c 233e 48d8 45be 65ca 733e cae5 2d3d
00000110: c9fc 05be e5ab 07be 40e4 cf3e fe46 27be
00000120: 7a0f a7be 8bb4 e7be 21d4 de3e c201 543e
00000130: b741 28be 190a 13bd 2419 d2be 34f8 b1be
00000140: 2c5f 83be 5126 aabe 6d73 98bd 1e64 adbd
00000150: ec00 f4bd 33da 59be 15cd 13bf d107 8ebd
00000160: f14f 47bf 964e ee3d 6dce ccbe 73f3 ab3e
00000170: 6687 6fbe d515 00bd cd57 b03d 6a63 97be
00000180: a623 12bf b1d8 1a3e ba49 88bf df79 13bd
00000190: c82a ce3e 519b cebe 3d00 213e 9b12 ad3b
000001a0: 6d11 aebb 94a3 8e3e d439 51bd bed0 de3c
000001b0: ecb0 263e f59c 78be 3148 593d a95d 69be
000001c0: 9db7 f53e 94ce af3e 5b93 09be c8f8 1d3f
000001d0: bff8 ca3e 979b b9be fafd 1e3e 8e53 40be
000001e0: d8bb af3c cff6 a3bd 4ac0 babe 2912 c4bd
000001f0: 752f 4f3d d738 02bf ba77 09bf 97c8 e8be
00000200: aab0 a4bd e43f 5bbb 4683 823e b97e a6bd
00000210: 0f98 d1be 160c dc3c f534 b8bd 93cb 61be
00000220: 1c9f 0ebe a1b8 f4be 3b15 0a3c 908e 4bbc
00000230: a70c 2a3f b77d 4cbe 21f9 a5be 7c29 883e
00000240: e67e d7be 7cde d5be 1c27 d8be 7f4e 0abe
00000250: 5e06 52bf 0815 a13e 1103 e63e c509 afbe
00000260: da7a 6f3d b9c2 733e d814 373e 34f9 77be
00000270: 00ee 303e dc33 8abd c301 a0bd c198 50be
00000280: d6d2 8f3e 05cd 39bc 80cb 2b3e b58a 29be
00000290: 3faf 2bbe e597 d43e 1b26 143e ca74 debe
000002a0: 8977 bc3c 1d5f 93bc 1e16 963e 5f44 1a3e
000002b0: 62da 313e cf38 37be 2842 b13e 63d5 923e
000002c0: ffba 7dbe 992d c3bd 56b7 d4be 11e0 693e
000002d0: 6089 2e3d 653c 8bbe ea46 c73c 386a acbd
000002e0: ac04 5f3e a62c 773e 1bd1 c93d 2cdd 653e
000002f0: 547b 933a 99f7 713d b256 dbbe 97db 943e
00000300: 85ae c8be 0b5b 2bbe d923 a0be ca9d 263e
-0.40801537 -0.37993798 0.0075585344 -0.21570894 -0.43954852 0.41365942 -0.1401747 0.075098954
0.07466098 0.22280814 0.08547005 0.0250802 0.31609264 -0.3657474 0.29957396 0.5884297
-0.28165197 -0.112819664 -0.21717566 0.23024754 -0.3830318 -0.4173683 0.32214132 -0.07264379
0.38008812 -0.2466611 -0.06227838 -0.05532494 0.021220846 0.19511968 -0.11083849 0.31680045
-0.22142804 -1.0118192 -0.17868797 -0.13046171 0.07287382 -0.0397134 0.3579444 -0.39776644
0.3731221 -0.08252029 0.81347245 0.4313943 0.16486482 0.17185701 0.3682733 0.035630137
-0.30944857 -0.04882711 -0.068673864 0.085575305 -0.14847547 -0.053817086 -0.13746789 0.29596087
-0.08386502 0.7852222 0.03947667 -0.19079444 0.24535172 -0.06778115 -0.11564759 0.08629211
0.15922755 -0.19320786 0.23807676 0.042455472 -0.13084711 -0.13249166 0.40603828 -0.16335675
-0.32628995 -0.4525493 0.43521217 0.20703796 -0.16431318 -0.0358983 -0.41034806 -0.34759676
-0.25658548 -0.33232358 -0.07443891 -0.084663615 -0.11914238 -0.21274643 -0.57734805 -0.069350846
-0.77856356 0.11636083 -0.4000124 0.33584175 -0.23391494 -0.03127082 0.08610497 -0.29568034
-0.57085645 0.15121724 -1.06475 -0.036004897 0.40267015 -0.40352872 0.15722747 0.005281759
-0.005312136 0.27859175 -0.05108054 0.027199145 0.16278428 -0.24278624 0.053047363 -0.22789635
0.47991648 0.34337294 -0.13435118 0.61707735 0.39642903 -0.36251518 0.15526572 -0.18781874
0.021451876 -0.080060594 -0.3647483 -0.09573776 0.050582368 -0.5086798 -0.53698313 -0.45465538
-0.080415085 -0.003345483 0.2549078 -0.08129639 -0.40936324 0.026861232 -0.08994476 -0.22050314
-0.13927883 -0.4779711 0.008427913 -0.012424126 0.66425556 -0.19969831 -0.32416633 0.2659415
-0.42089003 -0.41771305 -0.42217338 -0.13506506 -0.82040966 0.31461358 0.44924214 -0.3418714
0.05846677 0.2380475 0.17879045 -0.24216157 0.1727829 -0.06748173 -0.07812836 -0.20370771
0.28090543 -0.011340384 0.16776848 -0.16556819 -0.1676607 0.41522136 0.14467661 -0.43448478
0.023006218 -0.01798969 0.2931375 0.15065144 0.17368463 -0.17892765 0.34620786 0.28678426
-0.24778365 -0.095301814 -0.41546124 0.22839381 0.04261148 -0.27194515 0.024325807 -0.08418697
0.21779126 0.24138126 0.09854337 0.22447652 0.0011251965 0.05907402 -0.4283958 0.29073784
-0.39195648 -0.16733949 -0.3127735 0.16271129

convs.0.lin_r.bias f4 [14]
00000000: ef12 9bbd f279 8fbe 14e0 eb3e c49d 473e
00000010: 5c87 c2bd e5f3 a3bd c6f9 81bd ff12 2ebf
00000020: 21b5 9dbe 92ba 823e bd19 edbd 314c 223c
00000030: ed05 8dbe 5868 3fbe
-0.07571971 -0.28022724 0.46069396 0.19493777 -0.09498474 -0.080055036 -0.063464686 -0.67997736
-0.30802253 0.25532967 -0.11577175 0.009905861 -0.27543584 -0.18692148

convs.1.att f4 [1, 1, 14]
00000000: 9b70 71be 93e4 75be 8521 ea3e 9a9f 263d
00000010: b2e0 dcbd fbc1 e93e 19aa 973e cb78 a63d
00000020: 3901 30be 15fd 20be 9dc0 373e e6b1 873e
00000030: ee5c 12bf 6d2f 0c3e
-0.23578112 -0.24012975 0.45728698 0.04067955 -0.10785045 0.45655808 0.29621962 0.08128508
-0.17187966 -0.15721543 0.1794457 0.26502913 -0.5717305 0.13689966

convs.1.bias f4 [14]
00000000: 9b58 1240 33c2 3f3f f5b3 4340 18e3 0340
00000010: 6fc0 0ac0 615b 2940 e339 2540 1fd3 4e3f
00000020: 3779 fc3f 5e15 fa3f 0000 0000 0610 bebc
00000030: 6d69 1f40 af89 c33f
2.286658 0.749057 3.0578587 2.0607357 -2.1679952 2.6462023 2.5816581 0.80790895
1.9724492 1.9537771 0.0 -0.023201 2.4908097 1.5276393

convs.1.lin_l.weight f4 [14, 14]
00000000: 01a2 a93e f16f 23be e156 f9bd 5f3b ad3d
00000010: ad1b 1f3e 834e 913e ccc7 043f 7898 5b3e
00000020: 0d52 16bf fcf3 8b3d f29e aabe be9d ad3e
00000030: 1d79 bebe 02c5 7f3d e031 73bc 4618 c5bd
00000040: 20dd 053e f439 ed3d 529a 2b3e c55f c0be
00000050: b3e0 963d 92cd 163c 3acb 8cbd 2481 363e
00000060: bb39 973e 3a55 893d 99ca 293c e538 e53e
00000070: 393b 9f3e 29f0 113e 14ea 443e 8a76 95bd
00000080: 9dbc ec3e 652e 173e f6a7 a33e 0bc2 d93e
00000090: 94c3 a5be 1cdc 84be 3120 9e3d 63bf 663e
000000a0: 7d94 043f d98b cbbe c0c8 4f3c 9ae1 463e
000000b0: 8992 3ebe 7927 e53d 9a0e 033d f5b8 d53e
000000c0: 52d0 07bc 36f6 84be 7dd9 2ebf 132f 583d
000000d0: 4b59 5abf 0015 35bd d6a1 503f 5817 8cbe
000000e0: 2db2 ee3d 3561 8ebd deb0 d93e 61e0 ebbf
000000f0: a983 4e3d 7b20 45be 7dc0 883e 55d8 af3d
00000100: 4a91 553f c090 573e 1c46 aebf a8a0 9c3e
00000110: 5c08 f33f 829a f0bd 94bd 0e3c b8fd 99bc
00000120: 5714 41be ec74 01be 8f6a 05bd 97d9 0b3e
00000130: 55b1 0c3e cd42 44bd 7480 d1be a433 b33d
00000140: fd71 45be f857 a93e 07a7 25be 57af 2e3e
00000150: 726f 943e f4ec 8dbd 4929 133f 0163 03bf
00000160: 26b0 703e 3943 86be e718 a03e 98f6 d13e
00000170: 9cd7 dcbb 9ded d7bd 867e 47be acdc a53e
00000180: cf43 323e 3b6a db3d 4db3 113e 41f0 c03e
00000190: af32 89be dfaa d13e e360 02be d89f b13d
000001a0: 6f99 3cbe d7ed 963e b67c 313e 07b6 83bf
000001b0: 5d95 2c3f 0492 21bc 33bc 05bf d702 c7be
000001c0: e510 783d b3bf ba3e 9fb7 bc3e c6e4 9abd
000001d0: 4685 723e 68a3 a9be bbf9 5b3e 2cbb 54be
000001e0: 57bf aebe 65b2 c0bd dde4 25bf 008a 7c3e
000001f0: 2c09 863c bf58 03bc 6da2 053f 0bbb 6cbf
00000200: b358 c9be 3f98 87be 421e 4b3f f0d5 76be
00000210: 7b27 5bbe cee6 9a3f 121a 973e 064f 04bf
00000220: d073 693e 2e25 be3e 0db4 16bd 8a0b 963e
00000230: 0d64 4fbe 332a 2dbd b679 e2be 6e05 443b
00000240: 8b5a c43e 876a b33e 5d7a c9be 3d39 77bd
00000250: 158e e53e c948 27be 4868 b33e cb70 cabe
00000260: a1d4 5cbe fe53 bf3d fd84 0b3e 2802 89be
00000270: 05d3 d2be eb07 b93d 1c16 62be 7d56 9d3e
00000280: 8cda 85be 2be9 913e b206 883e e002 84bd
00000290: 2cc4 db3d 7007 adbe 7328 ec3d 80e7 883e
000002a0: fdd6 363e d190 223e becf de3d c91b 18be
000002b0: dec1 453e 13f1 1dbd b779 993d c34c d33e
000002c0: 5d64 cdbe 964b dbbe 99fd 62bc 67fa e43e
000002d0: 9e50 913e 4471 9c3e bd9c 723f f7ca 6cbf
000002e0: f2bb 543e 5a8c ae3e bf2c 683f 3291 72bd
000002f0: 6915 06bf 20c9 b1be ddf7 a6be e7ef e0bf
00000300: 8d15 c8be d046 863e d1e8 cfbe ae6f f5bd
0.33131412 -0.15960671 -0.12174774 0.0845859 0.15537901 0.28380212 0.51867366 0.21444881
-0.5871895 0.06833646 -0.3332439 0.3390941 -0.37201777 0.06244374 -0.014843434 -0.096237704
0.13072634 0.11583319 0.16758087 -0.37573066 0.07367077 0.009204285 -0.068747 0.178227
0.29536232 0.06705709 0.010363244 0.4476997 0.3109987 0.1425177 0.19229919 -0.07298
0.4623765 0.14763792 0.31964082 0.42530856 -0.32375777 -0.2594918 0.07720984 0.22533946
0.51789075 -0.39755133 0.01268214 0.19421998 -0.18610586 0.111891694 0.031996347 0.41742674
-0.0082894135 -0.25969094 -0.6830061 0.05277927 -0.852925 -0.04420948 0.8149694 -0.2736156
0.11655078 -0.069521345 0.4251775 -1.842785 0.05041853 -0.19250672 0.26709357 0.08586184
0.8342482 0.21051311 -1.3615146 0.3059132 1.8986926 -0.1174822 0.008712191 -0.01879774
-0.18855415 -0.12642258 -0.032572325 0.13657223 0.13739522 -0.04791527 -0.40918314 0.08750084
-0.19281764 0.33074927 -0.16176997 0.17059074 0.28991276 -0.06929961 0.5748487 -0.5132294
0.23504695 -0.26223162 0.31269 0.4100845 -0.00673957 -0.10543368 -0.19481859 0.32394922
0.1740868 0.10713621 0.14228554 0.376833 -0.2679648 0.40950677 -0.12732272 0.08673066
-0.18417905 0.29478332 0.1733273 -1.0289925 0.6741541 -0.009861473 -0.52240294 -0.38869354
0.060562987 0.3647438 0.36858842 -0.07563166 0.23683652 -0.33132482 0.21481983 -0.20774525
-0.34130356 -0.09409026 -0.6480234 0.24662018 0.016361795 -0.008016764 0.5220097 -0.92472905
-0.39325485 -0.26483342 0.79343045 -0.24105048 -0.2140178 1.2101686 0.29512078 -0.5168308
0.22798085 0.3713774 -0.036792804 0.2930568 -0.2025301 -0.042276572 -0.44233483 0.0029910463
0.3835033 0.3504221 -0.39351168 -0.06035732 0.44834962 -0.16336359 0.35040498 -0.3953918
-0.21565486 0.09342192 0.1362495 -0.26759458 -0.4117662 0.09034713 -0.22078747 0.30730048
-0.261433 0.28498206 0.26567608 -0.06445861 0.10730776 -0.33794737 0.115311526 0.2673912
0.17855449 0.15875556 0.108794674 -0.14854349 0.19312236 -0.038559984 0.074939184 0.41269502
-0.40115634 -0.42831105 -0.013854408 0.44722292 0.2838182 0.30555165 0.94770414 -0.924972
0.2077482 0.34091455 0.9069328 -0.0592205 -0.5237642 -0.3472376 -0.3261098 -1.7573212
-0.39078942 0.262259 -0.40607312 -0.11984192

convs.1.lin_l.bias f4 [14]
00000000: 1c51 d03f da1d 7d3f 0f5b 3440 fcd7 f53f
00000010: 09d5 d1bf a58c 3540 a442 cf3f 710c 853f
00000020: 3b44 fb3f 53cc c73f 9c97 41be 9937 38bb
00000030: 17d0 1b40 4fdd a03f
1.6274753 0.98873675 2.8180578 1.9206538 -1.6393138 2.8367093 1.6192212 1.0394422
1.9630197 1.560923 -0.1890549 -0.002810931 2.4345758 1.2567538

convs.1.lin_r.weight f4 [14, 14]
00000000: d813 a9bc 1e35 0cbd 5ec5 35be 8b5a a53c
00000010: 1b91 b7be acd4 6abd 7321 1fbd f422 95be
00000020: 2e79 2f3f 65a3 d73e a2cd 4c3e b448 bdbe
00000030: 73f9 82bc 161b 573c cef2 673d 21c3 ef3e
00000040: ff59 353e fbc6 db3e 9603 ed3e bf40 debd
00000050: 8a2c b93d 567a 223e 1242 c8be 923c 803e
00000060: b9d9 383e d3b2 c53e 80ae 52be 154f 76be
00000070: 4259 0dbe ff63 01be 8112 b63e 1889 603e
00000080: c405 6d3e df67 9bbe d40a 8d3e 123d 91be
00000090: e6a4 e73e 4d1e 7fbe 2a42 c53e 68a2 bdbe
000000a0: 4d04 ea3d 301e 51be 0646 71be 347b bd3c
000000b0: 5801 633e d43e ccbe c2ba ab3d 974c fc3d
000000c0: a1eb ec3e 43eb f0bc ffb9 8bbd 3aa5 0bbf
000000d0: bc3c 54be a449 18be cc7a ba3d bd30 183e
000000e0: 78b3 ac3d 2958 f3be cdaa f43d d183 1a3f
000000f0: 5a76 a0be ca75 973e be4e 10bf ee82 c03e
00000100: 63e5 1c3e 793f b9be 3aaa a7be 6a69 d1be
00000110: e62f c5bc 905d bd3c 921e f43e fe3c ef3e
00000120: fafe d53d 4d67 cfbe 19b7 ae3e 65c4 e2be
00000130: 4316 94be b145 fabd 8b9b a43c 8562 493e
00000140: bc4c 6a3e 0f1b 6dbe 4506 3ebe 928d 19bd
00000150: 6091 82be 3ca6 3a3d 0550 f33e 60d4 4abd
00000160: 8c1c 05bf 71c8 d2be 05f5 99be 65a4 cebe
00000170: 1365 b53d 9b2b edbe 2170 e63d 325e 79bd
00000180: e236 1e3e a2c5 1b3e 9733 323f ed0f f93e
00000190: 8651 1e3f d735 833f 32cc 853e 172e c4be
000001a0: c4aa ebbd 0b29 b93e 931b eb3c d3e0 0e3c
000001b0: dd19 193f 1db5 003f a525 c53d fbf4 cabd
000001c0: 9ace c4be 33e5 2a3e a92f 12bd a20a 09be
000001d0: a1d5 91be a512 91be 9f4d 363e 4a30 5b3e
000001e0: 188a ff3e 00f9 5b3e 40dc 013f f4ec 44be
000001f0: 31c7 833e 29eb 523d 7ec0 473e c5fb c1be
00000200: 91fa 97be 8306 f7be e67a 2ebe 7b7f 15be
00000210: acb3 cdbe aa5a 7cbe 60b5 843e 5237 8a3e
00000220: 692f 143f e035 173e 14ae 4dbe c83a 723e
00000230: 344e b3be 68b3 ffbd a8cd 80be 93d2 2a3e
00000240: 4fae 333b 2ef5 1abe 1936 92be c0ca ccbd
00000250: deb1 ca3e c300 e8bd f7a6 cb3d 2e61 3c3e
00000260: af89 b4be d747 4abd 5ccb 83be 6f62 333e
00000270: 9801 ad3e d1e6 debe 5223 c2bd e6fd b7bd
00000280: e80f fe3d b7e1 c6be 278c 25be 1241 86be
00000290: 4528 c9be 8884 9dbe a28b e7bd 27b6 9a3d
000002a0: 0e0a 9d3e ddf4 b83d 45c2 0a3e cc97 723e
000002b0: 0071 32be b487 66be 40da d03e a0c0 093e
000002c0: 729d ed3e e29a febe d303 57be 92db 8b3e
000002d0: d549 70be bbad 8a3e ffd2 ea3d 08f7 81be
000002e0: 89ff cfbc 2484 6abe bb36 45be 5ae4 4c3d
000002f0: 3dd2 50be ff2b e63e 5d66 b13d c427 d3be
00000300: 28ed 743e 751d 13be 9656 e4be e806 fabd
-0.020639345 -0.034230344 -0.17751071 0.020184776 -0.35852894 -0.057331726 -0.03885026 -0.2912823
0.6854428 0.42116848 0.20000318 -0.3696953 -0.015988087 0.013129016 0.05662804 0.4682856
0.17710112 0.42925248 0.46291798 -0.10852193 0.09041698 0.1586698 -0.39112908 0.2504621
0.18051805 0.38612995 -0.20574379 -0.24053605 -0.1380358 -0.12635802 0.35560992 0.21927297
0.2314673 -0.30352685 0.27547324 -0.28366905 0.45242995 -0.24913903 0.38527042 -0.3703797
0.114266016 -0.20421672 -0.23561868 0.023130037 0.22168481 -0.39891684 0.083852306 0.12319296
0.4627352 -0.029409057 -0.06822585 -0.5454899 -0.20726293 -0.14871842 0.09105453 0.14862342
0.084326684 -0.47528198 0.1194664 0.60357386 -0.31340295 0.29582053 -0.5637015 0.3759989
0.15321879 -0.36181238 -0.3274706 -0.40900737 -0.024070691 0.023115903 0.47679573 0.4672622
0.104490235 -0.405085 0.34124067 -0.44290462 -0.28923234 -0.12220324 0.0200937 0.19666488
0.22880834 -0.23154853 -0.18557079 -0.037488528 -0.25501537 0.04556869 0.47521988 -0.049518943
-0.51996684 -0.4116855 -0.30069748 -0.40359798 0.08857169 -0.4632233 0.11251856 -0.060880847
0.15450624 0.1521211 0.6960997 0.48644963 0.61843145 1.0250806 0.2613235 -0.38316414
-0.1150718 0.36164126 0.028699672 0.008720594 0.5980509 0.50276357 0.09626321 -0.099100076
-0.38438874 0.16688995 -0.035689984 -0.13382962 -0.28483298 -0.28334537 0.17803048 0.2140514
0.49910045 0.21481705 0.507267 -0.19231015 0.25737908 0.051493797 0.19507024 -0.37887397
-0.29683354 -0.48247156 -0.1703907 -0.14599411 -0.4017614 -0.2464396 0.25919628 0.2699533
0.5788484 0.14766645 -0.20085937 0.23655236 -0.35020602 -0.12485391 -0.25156903 0.1668189
0.0027417128 -0.15132591 -0.28556898 -0.09999609 0.39588827 -0.1132827 0.099439554 0.18396446
-0.35261294 -0.049384918 -0.25741088 0.17518018 0.33790278 -0.43535474 -0.09479393 -0.08983974
0.124053776 -0.38844082 -0.16166745 -0.2622152 -0.39288536 -0.30765176 -0.1130593 0.07554274
0.30671734 0.09031079 0.1355067 0.23690718 -0.17425919 -0.22512704 0.40791512 0.13452387
0.46409184 -0.4972754 -0.20997553 0.27315956 -0.23465665 0.2708567 0.114660256 -0.25383782
-0.025390403 -0.2290197 -0.1925916 0.05002246 -0.203927 0.4495544 0.08662102 -0.41241276
0.23918593 -0.14366706 -0.4459731 -0.122083485

convs.1.lin_r.bias f4 [14]
00000000: ce05 67bd 45f7 30be 38ef 3dbe dde7 af3d
00000010: 6aa4 86be cd83 be3b 1402 7f3d 9dcd f63e
00000020: db46 abbe b5c0 ee3e 594d 1a3e 1a78 b3be
00000030: f8c7 36be 7c52 f03e
-0.05640202 -0.17281826 -0.18548286 0.08589146 -0.26297313 0.0058140517 0.06225784 0.48203745
-0.33452496 0.466314 0.15068568 -0.35052568 -0.1784972 0.4693793

convs.2.att f4 [1, 1, 14]
00000000: bf82 19be 79fc 773e 06de b83d 190d af3e
00000010: 30e0 0d3d 4a6a 5abd c2bd 9bbb bf87 cd3e
00000020: b9ea 153e 0d9b 51be 4250 37bc 08d3 49be
00000030: 8562 00bd e462 993e
-0.14991282 0.24217404 0.090267226 0.3418968 0.03463763 -0.05332402 -0.0047528455 0.4014263
0.14640321 -0.20469303 -0.011188569 -0.19709408 -0.031343956 0.2995826

convs.2.bias f4 [14]
00000000: 2fcb 0e40 154f 2240 a7a3 313f b10b 0240
00000010: 56b5 0b40 09b9 9f3f 88c3 24c0 b6b8 0bc0
00000020: 6b4f 1d40 b4cd 1ac0 244d 20c0 d8bf 0640
00000030: c489 2140 9176 03c0
2.2311513 2.5360768 0.6939034 2.0319636 2.1829429 1.2478343 -2.5744343 -2.1831489
2.4579723 -2.4188051 -2.5047083 2.1054592 2.5240335 -2.0541117

convs.2.lin_l.weight f4 [14, 14]
00000000: 9e8b 033f eeb4 c83e eb93 c93e b140 d13e
00000010: 6b00 d53e 5da2 093f 6412 c03e 4228 69be
00000020: 17a7 303e d598 1d3e 44f6 87bc 7b59 8dbd
00000030: 67b2 873e c5ea a03e 8e6b 6e3b 8bd8 ad3e
00000040: 2799 9d3e 3bb7 813e 681d 903b 882d b53e
00000050: b9c3 2cbe a5ff 023f 3d07 1fbe c1c4 883e
00000060: e7d4 5b3d d20c 97be 6c20 893e b19c d8be
00000070: ebb5 90be 9205 0abf ea20 a63d c8bf 8d3f
00000080: 3c7c e33e 1d41 1e3f f784 1a3e 08ae f7bf
00000090: 0ccb 873e ec44 933e 8c99 0bbe 7340 7d3e
000000a0: 62dc fa3e 5f70 e73f 524e 8c3e 3f26 a53e
000000b0: b1c3 58be f436 223c 0bf4 84be ab6f ed3a
000000c0: d9ce b2bd 8af8 ebbe 6d54 74be 1a80 5dbd
000000d0: ede6 a8be af5a 173e 41b7 3e3e a548 77be
000000e0: d07d e73e 0cb2 f23d ddaa 97bb 3461 cb3e
000000f0: d22b 3abe 2419 833e 8ff5 8bbc 5967 863f
00000100: 2b3a d73e f27c 27c0 e1b8 de3e 9a13 d3be
00000110: 3756 003e 1bc1 2ac0 4eaf 5dbe eee5 563f
00000120: f166 843e e76b 973c 1dd0 7bbf b47b 883d
00000130: 9213 823e 1bea 063f e1ad f63d 685f 5fbf
00000140: 529d 9abe 5512 5dbd ea07 71bd da21 8ebf
00000150: e8b6 e5be d97c 01bf e780 6dbe a19f 86bf
00000160: 2329 a33f 9160 f8be 85e8 e33d 5352 acbc
00000170: 7f1d 3e3e 60ca da3f 97d3 a63e 4241 94be
00000180: b790 21be 6efc 3140 2fea 8dbe 0281 f43e
00000190: 2532 14bf dfc3 67bf d91e 313f db66 833d
000001a0: 286f dabd 5616 3a3f e756 18bf 49ea 913e
000001b0: 8d20 c53e 3135 343d 3541 c0be 24e8 89bf
000001c0: 4eb7 093f 4726 c13d c473 8bbd f17f f03c
000001d0: 0b63 193e d95b f93e 3281 f43d 162d 083f
000001e0: 9d23 cf3d 6423 01bf bf14 88be 0b3c c23d
000001f0: 9a0f d43e 8a92 48be 4b5b 3dbe 1110 183e
00000200: 94d7 9ebd 8ade ff3d a874 d7bd 5b7e 523e
00000210: 3deb 0cbe 2c32 083e 11d5 2cbe e82d 04be
00000220: 19e7 9cbd 1926 c93e 0aa3 64be e12b 153c
00000230: c069 a13d 83ce 49be ad6f 09bf 0f44 113e
00000240: 4558 0e3f f895 6cbe 546b b23d 2f75 843e
00000250: 150c aabe 1148 de3e 0ba8 83be 1632 a3bc
00000260: 980d f1be 762c ba3e 2b89 e93d 8fed 89be
00000270: dcda 6f3e 4c27 cebd 7216 e4bd 83d8 b23e
00000280: 1dbc febd e12c 8a3f c134 80bc 1e76 073d
00000290: 8f2a aabe d2b9 633e f89b f63e b3f2 c9be
000002a0: ba89 d93e 5cc4 fd3e 5506 92be 2eb7 9f3e
000002b0: 23ee cc3d 397e c13b 92c6 f13d ee57 4cbd
000002c0: 43d6 b83e 9fc9 5c3e dca8 30be f812 b9be
000002d0: 6b8d f13d 81ab 37bd 7288 0d3c d36b 383f
000002e0: 9a1c 38be 32c8 92be 71b6 a03e 4e85 1ebe
000002f0: f54f 00bf a92e c23e 740e fdbe dcad 45be
00000300: 9c4a 67be b6b5 b63d 28eb a6be 6658 91bf
0.51384914 0.39200538 0.39370665 0.40869668 0.4160188 0.5376337 0.3751403 -0.22769263
0.1725124 0.15390332 -0.01659692 -0.06901833 0.26503298 0.31429115 0.0036380026 0.33954272
0.30780908 0.25335106 0.0043980367 0.353863 -0.16871537 0.5117133 -0.15530105 0.2671261
0.053669836 -0.2950197 0.26782548 -0.42307046 -0.28263792 -0.5391475 0.081117466 1.1074152
0.4443072 0.61818105 0.15089785 -1.9349985 0.265221 0.2876352 -0.13632792 0.24731617
0.48996264 1.8081168 0.27403504 0.32255742 -0.211684 0.009900797 -0.2596744 0.0018114945
-0.08730859 -0.46088058 -0.23860331 -0.054077245 -0.32988682 0.14780687 0.18624593 -0.24148805
0.45213175 0.11850366 -0.004628523 0.39722598 -0.18180779 0.25605118 -0.017084865 1.0500289
0.42036566 -2.617001 0.43500426 -0.41225892 0.12532888 -2.6680362 -0.21648905 0.83944595
0.25859788 0.018484069 -0.9836443 0.066642195 0.25405556 0.52700967 0.120448835 -0.87254953
-0.3019815 -0.05397256 -0.058845438 -1.1104081 -0.4486611 -0.5058113 -0.23193704 -1.0517465
1.2746929 -0.48511174 0.11128334 -0.021035349 0.1856594 1.709301 0.32583305 -0.28956038
-0.1577786 2.781032 -0.2771773 0.47754675 -0.57889014 -0.9053325 0.69187695 0.064161025
-0.106657326 0.7269033 -0.595076 0.28499058 0.38501397 0.04399604 -0.3754975 -1.0773969
0.53795326 0.09431129 -0.0680919 0.029357882 0.14979188 0.48702887 0.119387046 0.53193796
0.101142146 -0.50444627 -0.26578328 0.094841085 0.41418153 -0.1958715 -0.18491857 0.14849879
-0.07755962 0.12493618 -0.10520297 0.20556013 -0.13761611 0.13300389 -0.16878153 -0.12908137
-0.07661266 0.3928688 -0.2232782 0.0091047 0.07881498 -0.19707684 -0.5368603 0.14186119
0.5560344 -0.23104084 0.087118775 0.25870654 -0.33212343 0.43414357 -0.25714144 -0.019921344
-0.47080684 0.36362046 0.11403116 -0.26939055 0.23423332 -0.10066089 -0.111370936 0.3493081
-0.124382235 1.0794946 -0.015650155 0.03307163 -0.33235595 0.22238854 0.4816587 -0.39442977
0.4248789 0.49563873 -0.28520456 0.31194443 0.100063585 0.0059049395 0.118054524 -0.049888544
0.3610097 0.21561287 -0.17251915 -0.36147285 0.117945515 -0.044841293 0.008638488 0.72039527
-0.1797966 -0.28668362 0.31389192 -0.15480539 -0.50122005 0.37926224 -0.4942509 -0.19304603
-0.22587055 0.08921377 -0.32601285 -1.1355102

convs.2.lin_l.bias f4 [14]
00000000: 1cb9 1040 9efd 2f40 673d 0f3f f4c5 c43f
00000010: 29fc 903f b493 953f 62ba 34c0 c53c f8bf
00000020: a3a8 1040 8ca0 d2bf 52c2 0ec0 0c30 af3f
00000030: d5e3 1540 1a8d 11c0
2.2612982 2.7498546 0.5595307 1.537291 1.1326953 1.16857 -2.823876 -1.9393545
2.2602928 -1.6455245 -2.2306104 1.3686538 2.3420308 -2.2742372

convs.2.lin_r.weight f4 [14, 14]
00000000: 4e48 be3e a46c f6be 0d00 00bf 3537 553e
00000010: da0b 093e 07bf 403e eadd 38be 5c30 07be
00000020: b225 b03c f90d e93e 419b 473c 88a6 e63e
00000030: 6d28 383e e70e 7ebe 6df7 413e cf0b e43e
00000040: 5bf4 b93e 4d84 e03c 2d84 b73d 594a b0be
00000050: 80c9 c23c b8e0 a1be 08e3 37be 07ea b93e
00000060: a0c4 a9be f5a0 b6bd f697 c3be 35af 79bd
00000070: 9901 febe 6f33 e0be 1ca3 06bf 17f7 ba3d
00000080: 96ae 86bf 5867 083d 1f6b b0be 4f04 d63d
00000090: e8ff 0ebf b118 bb3e 9079 7e3e 0708 babe
000000a0: c2dc 153e f01e b43f 7681 97be 614b b6bf
000000b0: 4611 113e fbcc 9e3e 15e6 473d 4a2b ba3e
000000c0: fd2e b5be 161e 153f c12a de3e 96a7 98bf
000000d0: 7806 b33d c74f 553e 1ac8 e83d 3b73 0abf
000000e0: a6e0 7fbe b688 2d3e 72c8 57be 227d 833e
000000f0: 50cf 0c3e 4a14 1abe 4e06 5cbe 41d8 d2be
00000100: 89e0 ab3c bcc7 2f3f b78d 113c 509e a33e
00000110: c349 97be 086a a5bd 9d75 d63d 8be5 703f
00000120: aeb6 80be 1c1f 5d3f 91af b13f 316a b7bd
00000130: 0f76 b83e f5bf 633f 31f3 1ebe 7b10 05bd
00000140: 241a 3a3e 7284 373e c5da 8a3e 251c 8dbf
00000150: 0e8d f3be 18a5 c2be 6789 a5bd 0f77 d03e
00000160: c198 cdbd 81c6 acbe 9811 12bf 5205 26bf
00000170: a2d2 9ebe 2c23 03bf 55ea c53e 4873 e1be
00000180: ff56 303e 9a40 04c0 23cc 82bc 82bc 03be
00000190: 825d 4e3e ba6c ce3e cd23 ecbd 1b02 9abe
000001a0: 352f 953d 13ca fcbd 7086 84be a992 cfbe
000001b0: 1b98 0b3e 7e5b 22be 055a ddbe 9e98 a5be
000001c0: a5e4 0a3e beae 923e c8a2 6cbe a467 a23e
000001d0: 42ed 04be 2bfd 28be afdd 8ebe df1a bd3d
000001e0: 1d84 863e ba03 4a3e 40b6 35be f9dc 9ebe
000001f0: db40 b93b e934 bb3e bf43 ae3e 221b 5bbe
00000200: 42d5 27be af3c 413f 79bb aabd ddb8 b0bd
00000210: 7521 ca3e 83d6 663e 2e25 f43d 5c99 ccbe
00000220: b5ac b23e 519b bebe 0a21 fa3e 9120 473e
00000230: 9510 873e 5899 56be acd8 9b3e 4829 09bf
00000240: f67f 943e 9761 ab3d 9e16 ad3e a40a 1b3b
00000250: 3c75 283f 8ee5 653d 5494 6b3e 8671 94bd
00000260: 2f81 2fbd 1377 cebe 6e5b 96be 8463 abbc
00000270: e436 893d 56e3 893f 879b 8f3f 8d2c e63d
00000280: 788d 0abd c30e 1dbf 8f20 10bf a1cb 46be
00000290: 5154 cabe 458a 33be b84b 41be 24c4 e03d
000002a0: 869e 903e 3e39 513e 1543 0e3c d9f6 0f3c
000002b0: 620d 4b3e 4dbe 7bbe e94e 0a3d ebd4 453e
000002c0: 6cbc 5bbd 8a0a 943d 7cd4 c03e c22c 64be
000002d0: cab5 883e 1124 643e db53 f73d e9d1 9e3d
000002e0: ea37 05bd 5ec6 8b3d 7755 e0be d83b b7be
000002f0: 6ff4 f1bd 2437 b23d 0c31 04be 5be2 6b3e
00000300: 8e27 bbbe ee37 d7bd 4e55 61bc 53a3 bfbe
0.3716454 -0.4812976 -0.5000008 0.20821841 0.13383427 0.18822871 -0.18053403 -0.13202041
0.02150235 0.45518473 0.0121830115 0.45048928 0.17984171 -0.24810372 0.18942042 0.4454026
0.3631924 0.027406836 0.089607574 -0.34431723 0.023777723 -0.3161676 -0.179577 0.3631136
-0.33157825 -0.08917419 -0.38201874 -0.060958106 -0.49610594 -0.4378924 -0.52592635 0.0912916
-1.0522029 0.03330168 -0.34456727 0.104500405 -0.5585923 0.36542276 0.2485106 -0.3633425
0.14634994 1.4071941 -0.29590958 -1.4241754 0.14166746 0.31015763 0.048803408 0.36361152
-0.35387412 0.5824903 0.43391994 -1.1926143 0.08741468 0.20831214 0.11366291 -0.5408208
-0.2498804 0.16946682 -0.21072558 0.25681406 0.13750958 -0.15046802 -0.2148678 -0.41180614
0.02098109 0.68664145 0.008883885 0.3195672 -0.29548463 -0.080768645 0.10471652 0.94100255
-0.25139374 0.86375594 1.3881704 -0.08955801 0.36027572 0.8896478 -0.15522458 -0.03248642
0.18174034 0.17921618 0.27120033 -1.1024214 -0.47568554 -0.38016582 -0.08082848 0.40715834
-0.10038901 -0.33745196 -0.57058096 -0.6485187 -0.31020075 -0.51225543 0.38655344 -0.44033265
0.17220686 -2.066443 -0.01596648 -0.12864879 0.20152858 0.40317327 -0.11530266 -0.3007973
0.07284395 -0.1234323 -0.25883818 -0.4054158 0.13632242 -0.15855214 -0.43232742 -0.32343
0.13563783 0.28648943 -0.23108971 0.31719697 -0.12981132 -0.16502826 -0.27903506 0.09233641
0.2627267 0.19727984 -0.17745304 -0.31027964 0.0056534833 0.36563805 0.3403606 -0.21397069
-0.16389945 0.7548322 -0.08336539 -0.0862901 0.3947865 0.22542767 0.11921154 -0.39960754
0.3489739 -0.37227872 0.48853332 0.19446017 0.2637984 -0.20956933 0.30438745 -0.53578615
0.29003876 0.08368223 0.33806318 0.0023657465 0.65803885 0.056127124 0.23005801 -0.072482154
-0.04284781 -0.4032522 -0.2936663 -0.020921476 0.06699923 1.0772502 1.1219338 0.11238966
-0.03382632 -0.6135065 -0.5629968 -0.19413616 -0.39517453 -0.17533214 -0.1887654 0.10974911
0.28245944 0.20431992 0.008682986 0.00878688 0.19829324 -0.24584313 0.03376666 0.19319503
-0.05364649 0.07228573 0.37662113 -0.22282699 0.26701194 0.22279383 0.12076541 0.07754881
-0.032524027 0.06824945 -0.43815205 -0.35787845 -0.118142 0.087019235 -0.12909335 0.23035567
-0.36553615 -0.105087146 -0.013753248 -0.37429294

convs.2.lin_r.bias f4 [14]
00000000: 82b0 93bc ccb0 17be c46a d2be 46cf 43bf
00000010: 9da9 98be 4ce8 b5bd 797a 1dbd e68e 34be
00000020: 395c cfbd b4dd 1dbd d3cf e73e c2cf 16be
00000030: fac4 b1bd 473e 09bd
-0.018028501 -0.14813536 -0.4109708 -0.7648815 -0.29816905 -0.08882198 -0.038446877 -0.17632636
-0.10125012 -0.03854151 0.45275745 -0.14727691 -0.086801484 -0.033506658

out_linear.weight f4 [2, 14]
00000000: 1118 f43e 7f47 c53d 255d d63f 6829 0d3f
00000010: fabc 54bc 039b 51bf fdf7 d1bd f5c1 d6be
00000020: 6599 363e a6f5 b5be 7efe 44be d903 2ebe
00000030: f93c 6c3e a18d ddbe 696e 623e e3d7 fd3e
00000040: b773 0ebf 392b 523f 8a78 3f3f 054f d83f
00000050: 66b1 c7bf 305e 51be 14cd 013f 7210 99be
00000060: 9a44 17bf a9d0 bd3e 2b2e ac3e b7c3 4bbd
0.4767461 0.096327774 1.6747175 0.55141306 -0.012984509 -0.81877154 -0.10252378 -0.41944852
0.17831953 -0.35538977 -0.19237706 -0.16993655 0.23070134 -0.43272117 0.2211243 0.4957877
-0.55645317 0.820972 0.74793303 1.6899115 -1.5601013 -0.20446086 0.5070355 -0.2989536
-0.5908905 0.37073258 0.33628973 -0.049747195

out_linear.bias f4 [2]
00000000: 60e5 cd3f 7a02 0b40
1.6085625 2.1720262

bns.0.weight f4 [14]
00000000: 0000 803f 0000 803f 0000 803f 0000 803f
00000010: 0000 803f 0000 803f 0000 803f 0000 803f
00000020: 0000 803f 0000 803f 0000 803f 0000 803f
00000030: 0000 803f 0000 803f
1.0 1.0 1.0 1.0 1.0 1.0 1.0 1.0
1.0 1.0 1.0 1.0 1.0 1.0

bns.0.bias f4 [14]
00000000: 0000 0000 0000 0000 0000 0000 0000 0000
00000010: 0000 0000 0000 0000 0000 0000 0000 0000
00000020: 0000 0000 0000 0000 0000 0000 0000 0000
00000030: 0000 0000 0000 0000
0.0 0.0 0.0 0.0 0.0 0.0 0.0 0.0
0.0 0.0 0.0 0.0 0.0 0.0

bns.0.running_mean f4 [14]
00000000: 0000 0000 0000 0000 0000 0000 0000 0000
00000010: 0000 0000 0000 0000 0000 0000 0000 0000
00000020: 0000 0000 0000 0000 0000 0000 0000 0000
00000030: 0000 0000 0000 0000
0.0 0.0 0.0 0.0 0.0 0.0 0.0 0.0
0.0 0.0 0.0 0.0 0.0 0.0

bns.0.running_var f4 [14]
00000000: 0000 803f 0000 803f 0000 803f 0000 803f
00000010: 0000 803f 0000 803f 0000 803f 0000 803f
00000020: 0000 803f 0000 803f 0000 803f 0000 803f
00000030: 0000 803f 0000 803f
1.0 1.0 1.0 1.0 1.0 1.0 1.0 1.0
1.0 1.0 1.0 1.0 1.0 1.0

bns.1.weight f4 [14]
00000000: 0000 803f 0000 803f 0000 803f 0000 803f
00000010: 0000 803f 0000 803f 0000 803f 0000 803f
00000020: 0000 803f 0000 803f 0000 803f 0000 803f
00000030: 0000 803f 0000 803f
1.0 1.0 1.0 1.0 1.0 1.0 1.0 1.0
1.0 1.0 1.0 1.0 1.0 1.0

bns.1.bias f4 [14]
00000000: 0000 0000 0000 0000 0000 0000 0000 0000
00000010: 0000 0000 0000 0000 0000 0000 0000 0000
00000020: 0000 0000 0000 0000 0000 0000 0000 0000
00000030: 0000 0000 0000 0000
0.0 0.0 0.0 0.0 0.0 0.0 0.0 0.0
0.0 0.0 0.0 0.0 0.0 0.0

bns.1.running_mean f4 [14]
00000000: 0000 0000 0000 0000 0000 0000 0000 0000
00000010: 0000 0000 0000 0000 0000 0000 0000 0000
00000020: 0000 0000 0000 0000 0000 0000 0000 0000
00000030: 0000 0000 0000 0000
0.0 0.0 0.0 0.0 0.0 0.0 0.0 0.0
0.0 0.0 0.0 0.0 0.0 0.0

bns.1.running_var f4 [14]
00000000: 0000 803f 0000 803f 0000 803f 0000 803f
00000010: 0000 803f 0000 803f 0000 803f 0000 803f
00000020: 0000 803f 0000 803f 0000 803f 0000 803f
00000030: 0000 803f 0000 803f
1.0 1.0 1.0 1.0 1.0 1.0 1.0 1.0
1.0 1.0 1.0 1.0 1.0 1.0
