gnn_model/GATv2_3CONV_v03_weight.pth (torch, 13963 bytes, 28 tensors)

convs.0.att f4 [1, 1, 14]
0.47861332 -0.038620446 -0.11764824 0.32647058 0.37429026 0.4086579 0.39251795 -0.36589286
-0.19197674 -0.46957392 0.2657959 -0.27308846 -0.05550273 0.5960002
00000000: ce0c f53e 7930 1ebd 8ff1 f0bd 2727 a73e
00000010: f9a2 bf3e 9c3b d13e 1df8 c83e 4f56 bbbe
00000020: 8d95 44be fe6b f0be 6616 883e 40d2 8bbe
00000030: d556 63bd 7893 183f

convs.0.bias f4 [14]
-0.15310946 0.21173306 -0.037679162 0.19901735 0.0 0.10277978 -0.013167485 0.25112543
0.0 0.0 0.30767432 0.1668826 0.20723245 0.0
00000000: bac8 1cbe 8dd0 583e 7755 1abd 34cb 4b3e
00000010: 0000 0000 357e d23d 6fbc 57bc 8393 803e
00000020: 0000 0000 0000 0000 7d87 9d3e 46e3 2a3e
00000030: be34 543e 0000 0000

convs.0.lin_l.weight f4 [14, 14]
-0.5770779 0.19927268 -0.3225858 -0.5168356 0.10962268 -0.25105843 -0.035470795 0.11853675
0.1414194 0.12100593 0.25444645 -0.24506459 -0.21887906 0.2181491 0.18198791 -0.17092843
0.108733624 0.49628526 0.1759504 -0.07195546 -0.09707023 0.8583794 0.3480665 0.43517512
0.323037 0.43507516 0.015976574 0.11100487 -0.21176733 0.13493215 -0.040824845 -0.019410355
-0.24152637 -0.1985505 0.046785396 -0.37361172 -0.26089948 0.2886219 0.3983063 0.22080074
0.09255547 -0.3325076 -0.20877577 -0.0953385 -0.11815057 0.084942445 -0.28583652 0.32412896
0.4715854 0.7687168 -0.4058685 -0.38993615 0.27277398 0.48532507 -0.25603983 0.042731192
-0.36622047 -0.165437 -0.07561608 -0.4537535 0.029688772 0.21633247 0.02963872 -0.3707131
-0.42625368 0.21540749 -0.40973365 -0.06024516 0.122077666 -0.42704675 0.66816044 0.48631874
-0.14446844 -0.26755822 -0.08149417 0.48567227 0.79710895 0.15478893 -0.2245582 0.36509106
-0.2507471 0.12438466 -0.32365754 -0.03417752 -0.11714512 -0.18139037 -0.29142335 -0.3135666
0.033240315 -0.43387267 0.44173422 0.32987675 0.06550643 0.37152138 -0.42203015 -0.21209677
0.2449866 -0.37325028 0.2801873 -0.27671915 -0.6326619 0.21724676 0.58883524 -0.32081866
1.040905 -0.77617365 -0.24475148 -0.3033873 0.73325866 0.21397538 0.19020592 0.36988035
0.32723004 -0.37198418 -0.15002476 -0.20058703 0.3436114 -0.2890129 0.10413669 -0.28342187
0.44420454 -0.43702158 -0.4607427 0.18270381 -0.1925841 -0.1277198 -0.3697749 0.38671246
-0.17493473 0.029782858 -0.22339378 -0.09613903 -0.07635832 -0.10931799 0.39173022 -0.4452741
0.2917564 -0.13771668 -0.14574294 -0.1573821 0.38778806 -0.12356531 0.039156247 -0.48229122
0.39194387 0.31169719 -0.27511415 0.106528066 0.4821613 -0.051024526 0.4502886 0.11540615
0.32246515 0.00059084775 0.5216551 0.60383904 0.47078398 -0.3174645 0.44736958 0.6267949
-0.16726743 0.70366883 0.467668 0.62667465 0.105848506 -0.060613874 0.12059132 0.34475252
0.019692177 0.04189715 0.31852067 -0.64324886 0.09177049 0.026246548 0.6512641 -0.1872948
0.048990056 0.31815228 0.28422773 0.026025176 0.08729563 0.107948914 -0.5127412 0.035125643
-0.29828924 -0.35409337 -0.30598235 0.062264156 -0.6306243 -0.65204173 0.60819405 -0.3443283
-0.11256596 -0.24502362 0.11627926 -0.025190204
00000000: 61bb 13bf 230e 4c3e f729 a5be 564f 04bf
00000010: db81 e03d bb8a 80be d349 11bd 65c3 f23d
00000020: 3fd0 103e f5d1 f73d ce46 823e 36f2 7abe
00000030: d521 60be 7a62 5f3e 0a5b 3a3e dd07 2fbe
00000040: bcaf de3d 1a19 fe3e 572c 343e 625d 93bd
00000050: c2cc c6bd c1be 5b3f c635 b23e 46cf de3e
00000060: 1b65 a53e 2cc2 de3e 4ee1 823c 8556 e33d
00000070: 89d9 58be a72b 0a3e f437 27bd 7702 9fbc
00000080: b052 77be d350 4bbe 0ba2 3f3d 094a bfbe
00000090: 9e94 85be 40c6 933e ceee cb3e 9719 623e
000000a0: b98d bd3d 703e aabe 51c9 55be d540 c3bd
000000b0: edf8 f1bd 4ef6 ad3d 2a59 92be 3bf4 a53e
000000c0: a473 f13e a0ca 443f ffcd cfbe b6a5 c7be
000000d0: 08a9 8b3e 877c f83e a717 83be e706 2f3d
000000e0: 4081 bbbe 5168 29be 9adc 9abd 6152 e8be
000000f0: de35 f33c 4286 5d3e e7cc f23c 1cce bdbe
00000100: ec3d dabe c893 5c3e 9cc8 d1be a1c3 76bd
00000110: db03 fa3d dfa5 dabe 900c 2b3f c5fe f83e
00000120: 89ef 13be 64fd 88be 6ae6 a6bd 09aa f83e
00000130: 550f 4c3f fd80 1e3e 96f2 65be 37ed ba3e
00000140: ed61 80be 62bd fe3d 71b6 a5be bafd 0bbd
00000150: c8e9 efbd 66be 39be 7135 95be cd8b a0be
00000160: ff26 083d 8f24 debe fd2a e23e 9be5 a83e
00000170: 3c28 863d 0d38 be3e 5614 d8be e52f 59be
00000180: c4dd 7a3e a91a bfbe b674 8f3e 22ae 8dbe
00000190: 21f6 21bf ef75 5e3e e8bd 163f 5842 a4be
000001a0: 603c 853f 51b3 46bf 22a0 7abe 9555 9bbe
000001b0: d7b6 3b3f 5d1c 5b3e 57c5 423e f560 bd3e
000001c0: b28a a73e b674 bebe 17a0 19be b066 4dbe
000001d0: d5ed af3e 80f9 93be 9e45 d53d ac1c 91be
000001e0: c76e e33e 4bc1 dfbe 78e6 ebbe b516 3b3e
000001f0: c434 45be fbc8 02be 2353 bdbe 2dff c53e
00000200: 1722 33be 2efb f33c 57c1 64be 8ae4 c4bd
00000210: c061 9cbd 1ce2 dfbd dd90 c83e f8fa e3be
00000220: 1861 953e 9a05 0dbe a33d 15be c628 21be
00000230: 288c c63e cf0f fdbd 4d62 203d e0ee f6be
00000240: deac c83e c696 9f3e c3db 8cbe 632b da3d
00000250: d9dd f63e 18ff 50bd 3a8c e63e 0f5a ec3d
00000260: 271a a53e 1fe3 1a3a 308b 053f 3295 1a3f
00000270: 990a f13e b58a a2be a00d e53e a175 203f
00000280: 2748 2bbe a423 343f 2e72 ef3e c06d 203f
00000290: 1ac7 d83d 4146 78bd 95f8 f63d 6783 b03e
000002a0: 7d51 a13c 599c 2b3d 2415 a33e f5ab 24bf
000002b0: 2bf2 bb3d 0003 d73c 3eb9 263f 35ca 3fbe
000002c0: cca9 483d dbe4 a23e 4c86 913e c032 d53c
000002d0: 0dc8 b23d 5214 dd3d 0243 03bf e8df 0f3d
000002e0: 5eb9 98be ba4b b5be b8a9 9cbe b308 7f3d
000002f0: 9870 21bf 35ec 26bf 9bb2 1b3f cd4b b0be
00000300: fb88 e6bd 79e7 7abe d223 ee3d b05b cebc

convs.0.lin_l.bias f4 [14]
-0.10683604 0.116553955 -0.16334134 0.2889245 0.071056545 0.302872 0.08594136 -0.0011358844
0.103264675 -0.15011749 0.2401289 0.025158882 0.39063427 0.23440346
00000000: dbcc dabd d7b3 ee3d f442 27be e9ed 933e
00000010: 1886 913d 0a12 9b3e 0602 b03d f5e1 94ba
00000020: 6e7c d33d 66b8 19be 5ae4 753e 001a ce3c
00000030: 3701 c83e 7607 703e

convs.0.lin_r.weight f4 [14, 14]
-0.008760202 0.24485038 -0.4736156 0.38063416 -0.008845937 0.17537801 -0.1994629 -0.04474672
0.27509853 -0.0020739844 0.23187009 -0.23160921 0.40012926 -0.004779789 0.39612147 0.06738474
0.36380136 0.4558944 0.16270497 0.3069883 0.083274916 0.3866144 0.15700676 0.15523387
0.019746242 -0.09478314 0.43748188 0.20708421 0.13353415 0.17199263 0.050725263 -0.36481088
0.4277774 -0.0010715425 -0.22213432 -0.23894683 -0.19556305 -0.16319895 0.16390538 -0.26424485
-0.00527631 -0.40609065 0.02250313 0.10744063 -0.052501407 0.21798672 -0.40978917 0.062393047
0.11362176 -0.51500624 -0.59692234 -0.5709733 0.1523586 -0.004461817 -0.31150192 0.06413018
0.10969279 -0.09255179 0.025016246 0.29067215 0.31345376 -0.30231428 -0.30759764 -0.075315244
-0.22530553 0.3368811 0.4371821 -0.07081017 -0.28277758 0.17147648 0.05650104 -0.23788908
-0.07750817 -0.09207088 -0.41730717 -0.45515367 0.2745532 0.34074545 0.30713844 -0.15347429
0.23628636 0.0065973382 -0.1415192 0.02364246 -0.101112664 -0.20459826 -0.43344003 -0.11895518
0.25255123 -0.39542028 -0.25057167 0.21865065 -0.3901394 -0.4343859 0.26736653 -0.21210314
0.11180951 0.1793137 0.10089879 -0.049051926 -0.33103693 -0.1975653 0.16191919 0.2843691
-0.058122907 0.19919299 -0.02154797 0.38668814 0.22159283 0.45151496 0.18727697 0.2716865
0.25541613 -0.045795307 -0.33968392 0.3142967 -0.40092042 0.12907895 0.26231828 -0.2576337
0.0633181 0.108406335 0.25620794 -0.3967072 0.24492987 -0.3921745 0.1459887 -0.24361768
-0.09776177 0.2629521 -0.37952828 0.34629303 -0.10507225 0.19376658 -0.062488824 -0.08611777
-0.28181055 -0.41560388 -0.07954181 -0.03615075 0.32304364 -0.07753666 0.38837013 -0.08472303
0.20081598 -0.11237985 -0.25201416 0.06658282 -0.22788928 0.0077045183 -0.21735466 0.21849933
0.39319634 -0.122560985 0.28598192 0.4194389 0.35883376 0.38406992 -0.15534168 0.44061005
0.3115972 -0.20511077 0.102372974 0.32817745 -0.19432768 0.18831672 -0.2988258 -0.09208678
-0.08205835 0.08188402 -0.38229474 0.024141476 -0.012286214 -0.12903501 -0.33507463 0.2672665
0.25815946 -0.35030517 -0.3829727 -0.24119578 -0.4930087 -0.5481623 0.123042345 0.43500033
0.021162897 0.17372142 -0.16198255 0.11534213 0.014058815 0.20567092 -0.22739458 0.28580153
0.39225426 -0.240427 0.058972232 -0.06810961
00000000: f386 0fbc 0fba 7a3e be7d f2be 7be2 c23e
00000010: 8dee 10bc 4b96 333e 0140 4cbe 5648 37bd
00000020: b7d9 8c3e afeb 07bb 5a6f 6d3e f72a 6dbe
00000030: bedd cc3e c79f 9cbb 6fd0 ca3e 0301 8a3d
00000040: 2c44 ba3e fe6a e93e 229c 263e 922d 9d3e
00000050: 0a8c aa3d 53f2 c53e 61c6 203e a1f5 1e3e
00000060: dfc2 a13c aa1d c2bd a0fd df3e e20d 543e
00000070: 2dbd 083e d61e 303e 4bc5 4f3d 7ec8 babe
00000080: a405 db3e 0073 8cba 2e77 63be 7aae 74be
00000090: ae41 48be a01d 27be d0d6 273e 1a4b 87be
000000a0: e5e4 acbb 1deb cfbe 7c58 b83c d509 dc3d
000000b0: b70b 57bd e937 5f3e e3cf d1be da8f 7f3d
000000c0: 86b2 e83d 73d7 03bf e7cf 18bf 4e2b 12bf
000000d0: e503 1c3e 6f34 92bb 2e7d 9fbe af56 833d
000000e0: 9da6 e03d cb8b bdbd dfee cc3c fbd2 943e
000000f0: 037d a03e f0c8 9abe 707d 9dbe e13e 9abd
00000100: 7eb6 66be ae7b ac3e 55d6 df3e ec04 91bd
00000110: 39c8 90be 8897 2f3e a26d 673d 3299 73be
00000120: 9abc 9ebd a88f bcbd 49a9 d5be e709 e9be
00000130: 3d92 8c3e 3076 ae3e 4041 9d3e 5d28 1dbe
00000140: 0df5 713e 7c2e d83b 69ea 10be d5ad c13c
00000150: 2814 cfbd 3582 51be daeb ddbe c69e f3bd
00000160: 654e 813e 8774 cabe ee4a 80be f5e5 5f3e
00000170: 5ac0 c7be d467 debe 44e4 883e 9131 59be
00000180: 62fc e43d 039e 373e 06a4 ce3d acea 48bd
00000190: ac7d a9be 8f4e 4abe 25ce 253e d498 913e
000001a0: 4912 6ebd 3ff9 4b3e 5e85 b0bc fdfb c53e
000001b0: 3be9 623e f82c e73e 89c5 3f3e 7e1a 8b3e
000001c0: e7c5 823e dc93 3bbd 0deb adbe 7feb a03e
000001d0: 7145 cdbe 462d 043e 954e 863e 90e8 83be
000001e0: ecac 813d 2404 de3d b02d 833e 351d cbbe
000001f0: e5ce 7a3e 19cb c8be 107e 153e ea76 79be
00000200: 5337 c8bd a8a1 863e 8851 c2be 524d b13e
00000210: 1f30 d7bd bf6a 463e 48f4 7fbd 835e b0bd
00000220: 7949 90be 08ca d4be d1e6 a2bd cf12 14bd
00000230: fa65 a53e 8acb 9ebd 73d8 c63e 4583 adbd
00000240: b4a2 4d3e 6827 e6bd 0008 81be 935c 883d
00000250: cf5b 69be 2f76 fc3b 3892 5ebe 4abe 5f3e
00000260: 0851 c93e 4101 fbbd 396c 923e b2c0 d63e
00000270: 0fb9 b73e d0a4 c43e e411 1fbe a497 e13e
00000280: ab89 9f3e 8f08 52be eca8 d13d e006 a83e
00000290: d6fd 46be 19d6 403e b2ff 98be fe97 bcbd
000002a0: 350e a8bd cfb2 a73d 23bc c3be 58c4 c53c
000002b0: 1e4c 49bc c121 04be e78e abbe 28d7 883e
000002c0: 7a2d 843e 335b b3be ff14 c4be 07fc 76be
000002d0: a36b fcbe 5d54 0cbf a0fd fb3d 5db8 de3e
000002e0: d05d ad3c 07e4 313e c1de 25be 7f38 ec3d
000002f0: f256 663c 669b 523e 20da 68be 9454 923e
00000300: 8dd5 c83e 7f32 76be de8c 713d 0d7d 8bbd

convs.0.lin_r.bias f4 [14]
0.10325697 -0.17678772 -0.086281314 -0.052798606 -0.26567253 0.38635728 0.21995643 -0.0140739065
-0.026044559 0.11924235 -0.0648234 -0.20742719 0.047757573 -0.26281813
00000000: 6478 d33d d707 35be 42b4 b0bd 5a43 58bd
00000010: 3b06 88be 9fd0 c53e 423c 613e 3e96 66bc
00000020: 665b d5bc 5535 f43d 21c2 84bd cb67 54be
00000030: 729d 433d 1990 86be

convs.1.att f4 [1, 1, 14]
-0.6870056 -0.3074033 -0.6328785 -0.22532617 0.20331888 0.3421476 -0.2325663 -0.387848
-0.3146279 -0.60958046 -0.53360635 0.41133893 -0.29415062 0.3835116
00000000: 99df 2fbf f763 9dbe 5304 22bf e7bb 66be
00000010: d332 503e f82d af3e dc25 6ebe 0394 c6be
00000020: e816 a1be 770d 1cbf 6d9a 08bf 049b d23e
00000030: e99a 96be a25b c43e

convs.1.bias f4 [14]
0.0 0.14932764 0.18041265 -0.053725615 0.15159994 0.0 -0.17177404 0.0
0.17597969 -0.026284844 0.5128494 0.106041625 0.1483252 0.0
00000000: 0000 0000 58e9 183e 18be 383e 640f 5cbd
00000010: 043d 1b3e 0000 0000 89e5 2fbe 0000 0000
00000020: 0534 343e 5053 d7bc 194a 033f 5a2c d93d
00000030: 90e2 173e 0000 0000

convs.1.lin_l.weight f4 [14, 14]
-0.4116584 0.21762629 -0.33131757 -0.06537904 0.12003715 -0.5219388 0.32886112 0.005590164
-0.096538395 -0.40661702 -0.07414468 -0.30713984 -0.53115636 -0.25934553 -0.30449754 0.32049054
-0.21156415 0.60618556 -0.13954557 0.56646484 0.016050162 -0.42209592 0.12707837 0.2684351
-0.23889251 0.615688 0.3117951 0.120037705 0.3827594 0.41911814 0.25062358 -0.24152441
0.012843664 -0.24259624 0.4183978 -0.6366053 0.18449724 -0.04607216 0.27545613 0.49193025
-0.19523248 0.08720432 -0.31185952 0.19254187 -0.35701916 0.7043135 0.2915856 0.068879895
0.14233805 -0.9736787 0.10700333 0.24056523 0.53539497 0.22610843 0.2755162 -0.17696418
-0.21950564 0.14476885 -0.24174769 0.32335368 -0.1325677 0.006757476 -0.12371484 0.036416393
-0.30832437 0.44682312 0.30210012 0.54299265 0.41618463 0.45149156 0.28285164 0.12914684
0.018531008 -0.28256053 0.4494834 -0.07846397 0.06987415 -0.1321817 0.2814447 0.05402974
-0.41764197 -0.43730056 0.04921589 -0.41662955 -0.26247165 -0.46849877 0.099114 0.51453453
-0.4187718 0.44784397 -0.2275003 0.82399744 -0.31784797 0.15089129 -0.15006779 0.1903783
0.5226974 -0.45541984 -0.28141516 0.10675524 -0.28651866 -0.35550204 -0.04223119 -0.59725475
-0.25123954 -0.23781222 0.30432644 -0.19025974 0.14086886 -0.11903906 -0.31876016 -0.011087239
-0.3390218 -0.008569602 -0.3865611 0.0044921595 0.2165096 0.6284325 -0.2227047 0.28957295
0.09470537 0.25523102 -0.27352327 0.6446292 -0.30758896 0.013972823 0.3213082 -0.23557508
-0.39814037 -0.288049 0.011453048 -0.18022771 -0.039249416 0.28945428 -0.39741123 0.44231474
-0.5115411 -0.029223828 -0.29828593 0.32485956 0.02562242 -0.35456246 0.13940899 0.5910911
-0.43714583 1.116739 -0.29511267 0.7983343 0.23597299 0.23555255 0.09602758 -0.17850128
0.5705708 0.28557697 0.21860105 0.12963215 0.119502336 0.538985 0.13319035 0.4884498
0.054904036 0.0028274292 -0.099488206 -0.048684284 0.23784287 0.48759022 -0.2167244 -0.28589597
-0.2314866 -0.04445815 0.25426206 0.28154573 0.3883973 -0.008977665 -0.13453898 0.23339823
0.3888806 -0.21541226 0.16092318 0.26606557 0.3934106 0.20584942 -0.27065337 -0.32507336
-0.044476595 -0.110393204 0.34115595 0.3706366 0.16226023 -0.12095786 0.44625986 -0.43845466
-0.008149176 -0.21880768 -0.07698856 -0.093671486
00000000: e4c4 d2be 6dd9 5e3e 75a2 a9be 72e5 85bd
00000010: 0ad6 f53d c89d 05bf 7c60 a83e b22d b73b
00000020: ecb5 c5bd 1b30 d0be 2ad9 97bd 6f41 9dbe
00000030: ddf9 07bf f0c8 84be 1ae7 9bbe 5617 a43e
00000040: 46a4 58be fa2e 1b3f 09e5 0ebe d703 113f
00000050: a17b 833c f51c d8be d520 023e 5370 893e
00000060: 3da0 74be bb9d 1d3f 9ba3 9f3e 54d6 f53d
00000070: 0af9 c33e a796 d63e bc51 803e 2d52 77be
00000080: 3b6e 523c 266b 78be 3d38 d63e 91f8 22bf
00000090: d8ec 3c3e 29b6 3cbd 9608 8d3e 48de fb3e
000000a0: 06eb 47be 2e98 b23d 0dac 9fbe b229 453e
000000b0: 37cb b6be e44d 343f b54a 953e e710 8d3d
000000c0: 11c1 113e 0243 79bf 9024 db3d bb56 763e
000000d0: a50f 093f f888 673e 7610 8d3e 1936 35be
000000e0: 16c6 60be 493e 143e b58c 77be 9d8e a53e
000000f0: d4bf 07be d16d dd3b 355e fdbd 5b29 153d
00000100: b1dc 9dbe 00c6 e43e deac 9a3e 9101 0b3f
00000110: 2716 d53e e729 e73e eed1 903e 123f 043e
00000120: 57ce 973c c6ab 90be b022 e63e b8b1 a0bd
00000130: 2e1a 8f3d a45a 07be 8519 903e 4a4e 5d3d
00000140: 2bd5 d5be dce5 dfbe 9a96 493d 7850 d5be
00000150: af62 86be 12df efbe 48fc ca3d 89b8 033f
00000160: 4269 d6be ce4b e53e d7f5 68be 7ff1 523f
00000170: f8bc a2be 3f83 1a3e 5fab 19be 87f2 423e
00000180: 7fcf 053f ca2c e9be a615 90be 7ea2 da3d
00000190: 93b2 92be 5d04 b6be 9dfa 2cbd b0e5 18bf
000001a0: 78a2 80be 0c85 73be add0 9b3e 73d3 42be
000001b0: ed3f 103e c0ca f3bd 8834 a3be 40a7 35bc
000001c0: 4494 adbe 8467 0cbc 56eb c5be f732 933b
000001d0: b1b4 5d3e f4e0 203f b30c 64be e842 943e
000001e0: e4f4 c13d a4ad 823e 3e0b 8cbe 6b06 253f
000001f0: 4d7c 9dbe 44ee 643c 8282 a43e 983a 71be
00000200: 0ed9 cbbe 297b 93be 91a5 3b3c 9d8d 38be
00000210: ffc3 20bd 5a33 943e 7c79 cbbe 1477 e23e
00000220: 5cf4 02bf cf66 efbc efb8 98be fe53 a63e
00000230: 1ce6 d13c 3689 b5be 3bc1 0e3e bf51 173f
00000240: 94d1 dfbe 4ef1 8e3f 0219 97be a35f 4c3f
00000250: e7a2 713e b034 713e 1caa c43d 0ac9 36be
00000260: ee10 123f 2537 923e f4d8 5f3e 4abe 043e
00000270: a4bd f43d ecfa 093f 0d63 083e 1816 fa3e
00000280: 0ee3 603d 644c 393b 79c0 cbbd 2c69 47bd
00000290: 158d 733e 6da5 f93e 00ed 5dbe f560 92be
000002a0: d30a 6dbe c019 36bd a32e 823e c326 903e
000002b0: 03dc c63e 0e17 13bc 96c4 09be f2ff 6e3e
000002c0: 5c1b c73e 0895 5cbe 0cc9 243e bf39 883e
000002d0: 1d6d c93e 31ca 523e 1493 8abe 0470 a6be
000002e0: 172d 36bd d515 e2bd feab ae3e 15c4 bd3e
000002f0: 8c27 263e c1b8 f7bd 2c7c e43e 217d e0be
00000300: 1f84 05bc 1f0f 60be 2eac 9dbd d6d6 bfbd

convs.1.lin_l.bias f4 [14]
-0.20166326 0.14985314 0.20038058 -0.119211905 0.11535817 0.25701416 0.06042983 -0.35784867
0.11907895 -0.19512193 0.63886064 0.112115145 0.0050514406 -0.08703314
00000000: d080 4ebe 1a73 193e 9130 4d3e 5f25 f4bd
00000010: e740 ec3d 5c97 833e 4585 773d f137 b7be
00000020: aadf f33d 0bce 47be 5f8c 233f a09c e53d
00000030: 8e86 a53b 6e3e b2bd

convs.1.lin_r.weight f4 [14, 14]
-0.30481443 0.2537426 -0.21790536 0.32517865 -0.0038834887 0.08702146 -0.20700322 -0.5141643
0.1728942 0.11342875 0.22114116 0.3818862 -0.37240785 -0.46170628 0.44061816 -0.51924324
0.03305178 0.07893578 -0.1736931 -0.17853042 0.4312847 0.03349838 0.17845617 -0.3042935
-0.47535574 0.13171166 0.025995785 -0.086259834 0.3089057 -0.053225644 0.4206363 -0.21614642
-0.07903067 0.094294555 -0.39672333 0.34226245 0.41242108 -0.23242599 0.15185826 0.23279862
0.40193084 -0.18053588 -0.42295304 -0.15465143 0.38583472 0.030577604 -0.043690566 -0.27041063
0.05648793 -0.3280092 -0.02184575 -0.29845482 -0.12849249 -0.37440056 -0.48392206 -0.33519712
0.4757084 0.1959889 0.33122537 -0.03032527 0.43096635 0.12479452 0.34210813 -0.12194687
0.32945207 0.35739133 0.46258414 -0.40370628 -0.15940389 0.42492577 0.06428741 -0.22113186
0.17512509 -0.10830182 -0.45163074 0.3901902 0.025314014 0.27642164 0.021084389 -0.0017680138
-0.27800286 -0.3104678 0.26269814 0.24859399 0.3002469 -0.26638564 0.28119808 -0.17747357
-0.19525872 -0.38328156 0.41661534 -0.3837142 -0.054721102 -0.39651996 -0.2647663 -0.041042037
-0.49117815 0.19680087 0.12911592 -0.3448633 -0.23002361 0.04505288 0.1080884 0.065655984
-0.44726166 -0.18961744 -0.14510106 -0.24803132 -0.36851665 0.42588153 0.2577722 0.102952056
-0.24041663 0.23228917 -0.15120853 0.39458257 -0.22511616 0.20841563 0.30261126 -0.30669963
-0.15047377 -0.09101875 0.11138296 0.10621135 -0.24685866 -0.2693478 -0.24369118 0.2997671
-0.2927226 0.20743546 0.31562418 0.2802125 0.26432046 -0.4070875 -0.21841234 -0.29821682
-0.12223131 0.3066671 -0.43221015 0.20780799 -0.03572904 -0.19882534 0.29535466 0.6657272
0.09555116 0.5129091 0.18550862 0.26979643 -0.013738294 -0.035340633 0.12578923 0.044686902
0.5267784 0.2965427 0.18491201 -0.19320464 0.40388122 -0.004369553 -0.4278091 0.4099576
0.22147267 0.19364493 -0.36072806 -0.19940393 0.3958076 -0.23917815 -0.40899116 -0.35031474
0.28443944 -0.3690423 -0.3390915 -0.24588938 0.2433118 0.16238333 0.38109514 -0.07171661
-0.32486928 -0.09158697 -0.047558267 -0.4122285 -0.48968822 0.07338381 0.26841798 -0.16148521
0.03745448 0.26623526 0.117564835 -0.012530472 -0.3615928 -0.44675 0.006690298 0.30678824
-0.30208373 -0.32702857 -0.42073503 -0.42644337
00000000: a310 9cbe 8dea 813e 9522 5fbe d17d a63e
00000010: 2182 7ebb 4f38 b23d a7f8 53be 46a0 03bf
00000020: 2d0b 313e 554d e83d d472 623e 9786 c33e
00000030: 3eac bebe c464 ecbe b498 e13e 20ed 04bf
00000040: 4e61 073d 15a9 a13d 9bdc 31be aed0 36be
00000050: 59d1 dc3e 9935 093d 37bd 363e 5ccc 9bbe
00000060: d461 f3be 6cdf 063e 1df5 d43c ffa8 b0bd
00000070: e328 9e3e 2203 5abd a45d d73e 7d55 5dbe
00000080: d5da a1bd 811d c13d 521f cbbe 063d af3e
00000090: db28 d33e 1401 6ebe bb80 1b3e c362 6e3e
000000a0: e1c9 cd3e 66de 38be 4d8d d8be f25c 1ebe
000000b0: 218c c53e e27d fa3c e1f4 32bd 4373 8abe
000000c0: e35f 673d d2f0 a7be dcf5 b2bc 12cf 98be
000000d0: 8993 03be 6eb1 bfbe a2c4 f7be f59e abbe
000000e0: 0d90 f33e 50b1 483e 5f96 a93e b36c f8bc
000000f0: 9fa7 dc3e 4594 ff3d cc28 af3e 48bf f9bd
00000100: f1ad a83e fffb b63e d4d7 ec3e 97b2 cebe
00000110: c63a 23be df8f d93e 1ea9 833d 6470 62be
00000120: fe53 333e 58cd ddbd 253c e7be 03c7 c73e
00000130: 565f cf3c 2387 8d3e 2bb9 ac3c b3bc e7ba
00000140: 6456 8ebe a3f5 9ebe 5f80 863e 6c8f 7e3e
00000150: f6b9 993e b363 88be 32f9 8f3e a2bb 35be
00000160: e7f1 47be 7b3d c4be 9b4e d53e 3076 c4be
00000170: 3c23 60bd aa04 cbbe 738f 87be b21b 28bd
00000180: b47b fbbe 2b86 493e f736 043e ec91 b0be
00000190: 4f8b 6bbe 5e89 383d 735d dd3d a576 863d
000001a0: 7bff e4be 132b 42be 5f95 14be ecfb 7dbe
000001b0: 37ae bcbe 250d da3e b8fa 833e 87d8 d23d
000001c0: c72f 76be 36dd 6d3e 69d6 1abe ba06 ca3e
000001d0: da84 66be e86a 553e ddef 9a3e bc07 9dbe
000001e0: cc15 1abe 0a68 babd c01c e43d 5685 d93d
000001f0: 84c8 7cbe f4e7 89be 2e8a 79be 137b 993e
00000200: bddf 95be f669 543e 7e99 a13e 0378 8f3e
00000210: 0355 873e c66d d0be 7ca7 5fbe e0af 98be
00000220: 6954 fabd 7803 9d3e a64a ddbe 9ecb 543e
00000230: 9d58 12bd df98 4bbe ba38 973e 196d 2a3f
00000240: 54b0 c33d 034e 033f f9f5 3d3e c222 8a3e
00000250: 9516 61bc 57c1 10bd e4ce 003e 9d09 373d
00000260: f3da 063f 72d4 973e 9359 3d3e 70d7 45be
00000270: 85c9 ce3e 782e 8fbb cb09 dbbe f6e5 d13e
00000280: bbc9 623e db4a 463e 59b1 b8be 8b30 4cbe
00000290: 4ba7 ca3e 1eeb 74be 4a67 d1be 745c b3be
000002a0: 0ca2 913e 1df3 bcbe 679d adbe 6dca 7bbe
000002b0: ba26 793e d147 263e e71e c33e 28e0 92bd
000002c0: 4455 a6be f391 bbbd 75cc 42bd 9d0f d3be
000002d0: 6ab8 fabe 404a 963d 156e 893e 615c 25be
000002e0: de69 193d fd4f 883e d5c5 f03d 9c4c 4dbc
000002f0: b122 b9be 6abc e4be 4a3a db3b 5913 9d3e
00000300: b8aa 9abe 4a70 a7be 956a d7be c956 dabe

convs.1.lin_r.bias f4 [14]
0.009634429 -0.26107377 0.1652344 0.19052155 -0.006344012 0.16393925 -0.12525538 -0.33788493
-0.072483815 0.18947427 -0.029115738 -0.18511485 0.12195292 0.057727493
00000000: b9d9 1d3c 76ab 85be 3533 293e 1518 433e
00000010: 6ee1 cfbb b1df 273e f242 00be 41ff acbe
00000020: 6572 94bd 8b05 423e 2184 eebc bf8e 3dbe
00000030: 74c2 f93d aa73 6c3d

convs.2.att f4 [1, 1, 14]
-0.22649269 0.31034607 0.06255726 -0.13865158 -0.41696823 0.12785429 -0.0024870068 -0.33761847
-0.6155734 0.28165346 0.1044126 -0.5066172 -0.31348717 -0.40192965
00000000: b3ed 67be aee5 9e3e 051e 803d aefa 0dbe
00000010: dc7c d5be 3cec 023e 0dfd 22bb 54dc acbe
00000020: 3896 1dbf e234 903e 46d6 d53d aab1 01bf
00000030: 6481 a0be b9c9 cdbe

convs.2.bias f4 [14]
-0.14487533 0.16321775 -0.12538508 -0.11039605 0.06916733 0.041313387 -0.1378538 -0.13146777
-0.13101368 -0.13028643 0.14061439 0.17974742 -0.17336695 0.055580374
00000000: 335a 14be 8e22 273e f264 00be 5317 e2bd
00000010: 9aa7 8d3d 3a38 293d 8c29 0dbe 7d9f 06be
00000020: 7328 06be ce69 05be 38fd 0f3e b50f 383e
00000030: 1b87 31be 3fa8 633d

convs.2.lin_l.weight f4 [14, 14]
0.32251775 -0.26348245 0.1171901 -0.29551178 -0.61532146 -0.00094164576 -0.0677723 -0.38308573
-0.63115656 0.05643766 0.091864824 0.21408014 -0.056719813 -0.013923626 0.1299523 0.34486404
0.5091137 0.8735261 0.38974562 -0.122007936 -0.34021664 -0.43956065 0.39371464 0.2543327
-0.87410504 0.5625417 -0.15807977 -0.2888342 -0.44082728 -0.60251766 0.046982884 0.2715054
-0.2056134 -0.10950224 -0.30506265 0.4012323 -0.503015 0.3167778 -1.5667627 0.14798482
-0.19537625 0.4542214 -0.34516135 -0.31231734 0.2795463 0.28558868 -0.21949007 -0.43203685
0.16367269 0.21824661 -0.095182456 0.40799618 -1.4773402 -0.31369114 -0.1905836 0.09999501
-0.3394128 -0.23479524 0.5299127 0.46421453 -0.31378594 -0.45304918 0.009969982 0.41445145
-0.02732505 -0.2591921 -0.941804 0.102956735 0.11263621 -0.34189636 0.43596593 0.20562203
0.8924857 0.5776886 0.31312725 0.013531136 -1.1695846 0.13036469 -0.1708841 -0.2951205
-1.5965408 -0.2925042 0.0009703474 0.07203491 -0.017322524 0.032052387 -0.3408871 -0.12787868
-0.20941971 -0.4226389 -0.15425484 0.3800103 -0.08935742 0.13904497 -0.7336318 -0.4409164
0.06168037 0.3665881 -0.39213082 -0.44994256 -0.42176905 0.21904577 -0.47166243 -0.22208418
-0.58045185 0.2557161 -0.47709042 0.16416867 -0.8200113 0.081865504 -0.44025534 -0.252732
-0.35984638 -0.12652317 -0.26643145 0.03613225 -0.54233915 -0.038374577 -0.018296937 -0.025417013
-0.3042538 0.18247868 -1.1077332 -0.14104697 -0.48053235 -0.13132763 -0.03342059 -0.07769721
-0.5168739 -0.2764773 -0.5115593 0.36481225 0.008252473 0.23466818 -0.23523325 -0.43755683
0.014314315 0.028226161 -0.17875558 0.03370848 -0.013650967 0.26602265 0.22255096 0.18518248
0.44603434 -0.027130203 -0.32205284 -0.14515303 0.20016025 0.47797012 -0.33930397 0.6207759
0.06171397 -0.029881416 -0.2521995 0.7545057 0.3561082 0.41798174 0.15911062 -0.30174974
-0.13557898 -0.22473662 0.6947688 -0.10025032 -0.9356009 0.10854994 -0.17011043 0.31796095
-0.3984481 -0.28920284 -0.36617944 -0.48953736 -0.66963047 0.14258385 0.21472059 -0.16649485
-0.40506873 -0.1145637 1.003558 -0.14530538 0.08821505 0.013024168 -0.0550993 -0.29863626
-0.35596842 -0.13613905 0.44216868 -0.021505548 -0.11909961 -0.26191998 -0.10844579 -0.3289416
0.5488098 -0.035965674 0.01671408 -0.3783355
00000000: 0c21 a53e 2ce7 86be 5d01 f03d 524d 97be
00000010: b585 1dbf c7d8 76ba 34cc 8abd d023 c4be
00000020: 7a93 21bf 2d2b 673d a023 bc3d d337 5b3e
00000030: 0953 68bd ec1f 64bc 3712 053e 0592 b03e
00000040: 4755 023f 689f 5f3f bd8c c73e 4cdf f9bd
00000050: e030 aebe 180e e1be f794 c93e e537 823e
00000060: 59c5 5fbf bc02 103f aadf 21be 14e2 93be
00000070: 1db4 e1be 993e 1abf 2071 403d c102 8b3e
00000080: 528c 52be b642 e0bd 2c31 9cbe 526e cd3e
00000090: 97c5 00bf b330 a23e ae8b c8bf 5589 173e
000000a0: b610 48be b58f e83e fdb8 b0be 0fe8 9fbe
000000b0: b120 8f3e ae38 923e 01c2 60be ef33 ddbe
000000c0: d099 273e 0a7c 5f3e 05ef c2bd e0e4 d03e
000000d0: 7c19 bdbf 209c a0be 5928 43be 2fca cc3d
000000e0: 84c7 adbe 2a6e 70be 5ca8 073f 87ad ed3e
000000f0: 8da8 a0be 10f6 e7be 2359 233c fb32 d43e
00000100: c9d8 dfbc d4b4 84be 111a 71bf fbda d23d
00000110: d0ad e63d 0a0d afbe ed36 df3e 958e 523e
00000120: f179 643f 66e3 133f 3752 a03e b3b1 5d3c
00000130: f3b4 95bf 527e 053e 3efc 2ebe 091a 97be
00000140: 735b ccbf 1cc3 95be e95e 7e3a 0a87 933d
00000150: f7e7 8dbc 5d49 033d c188 aebe a1f2 02be
00000160: 1f72 56be 2064 d8be fbf4 1dbe b690 c23e
00000170: 0601 b7bd ce61 0e3e 4bcf 3bbf cbbf e1be
00000180: 8ea4 7c3d 6fb1 bb3e 5fc5 c8be df5e e6be
00000190: 1df2 d7be 894d 603e bd7d f1be 096a 63be
000001a0: 7e98 14bf 38ed 823e 3245 f4be d51b 283e
000001b0: 43ec 51bf 1aa9 a73d 2669 e1be 1766 81be
000001c0: c93d b8be 4a8f 01be b469 88be 69ff 133d
000001d0: bdd6 0abf a92e 1dbd 75e3 95bc 5737 d0bc
000001e0: 27c7 9bbe b1db 3a3e 34ca 8dbf 9e6e 10be
000001f0: 5608 f6be c07a 06be 07e4 08bd b71f 9fbd
00000200: d951 04bf 6f8e 8dbe 8df5 02bf acc8 ba3e
00000210: 6135 073c db4c 703e fce0 70be 7307 e0be
00000220: 9786 6a3c 8d3a e73c b40b 37be e711 0a3d
00000230: 4ea8 5fbc 1f34 883e 66e4 633e 7aa0 3d3e
00000240: 9d5e e43e 2940 debc 1ce4 a4be ffa2 14be
00000250: cff6 4c3e 80b8 f43e 40b9 adbe 2beb 1e3f
00000260: cac7 7c3d dfc9 f4bc 4b20 81be 4927 413f
00000270: d053 b63e b401 d63e e5ed 223e f17e 9abe
00000280: 37d5 0abe 5b21 66be 5edc 313f 0a50 cdbd
00000290: 8a83 6fbf 6e4f de3d 6e31 2ebe c7cb a23e
000002a0: 6401 ccbe 6512 94be df7b bbbe a4a4 fabe
000002b0: e76c 2bbf 8001 123e b7df 5b3e a07d 2abe
000002c0: 2b65 cfbe 60a0 eabd 9774 803f efca 14be
000002d0: 18aa b43d 5263 553c ceaf 61bd dae6 98be
000002e0: 7e41 b6be 0968 0bbe ef63 e23e 672c b0bc
000002f0: 7fea f3bd 601a 86be d418 debd 096b a8be
00000300: cd7e 0c3f be50 13bd f7eb 883c 31b5 c1be

convs.2.lin_l.bias f4 [14]
0.08050975 0.059907973 -0.0054471265 -0.03738697 0.33786386 0.19292744 -0.3920727 -0.17059365
0.014956564 -0.36766258 0.21455483 0.34015465 -0.2443007 0.1934052
00000000: 4ce2 a43d 1062 753d cf7d b2bb 1423 19bd
00000010: 7efc ac3e c58e 453e c1bd c8be 1ab0 2ebe
00000020: 600c 753c 453e bcbe 43b4 5b3e c028 ae3e
00000030: f629 7abe 030c 463e

convs.2.lin_r.weight f4 [14, 14]
-0.39864624 0.18765979 0.38557148 -0.056690287 -0.4623161 -0.112551615 -0.1461652 0.32132962
-0.3440854 0.23914392 0.28893775 -0.25966465 -0.11078906 0.06809389 0.3489888 -0.36835176
-0.0057701883 -0.19001842 0.14926994 0.31398135 0.26905876 -0.46110296 0.068235226 0.07543889
0.086156085 0.27703905 -0.26745942 0.34210873 -0.37240624 -0.18642756 -0.17127222 -0.34633818
0.2751338 -0.064438306 0.16142392 0.43555853 0.26258942 0.35742745 -0.06850964 0.09292338
0.24054734 0.011157487 -0.2619036 0.4640349 -0.23932678 -0.27996936 0.08478715 0.012249066
0.114372924 0.39996934 -0.113470495 -0.06004414 -0.37161022 0.31711066 -0.40556285 0.26630872
0.037389915 0.0026222363 -0.26995462 -0.5760276 0.3302505 0.2671768 -0.30946547 -0.17388214
0.28158572 -0.008590868 0.12268309 0.28607595 0.21438363 0.22776514 -0.075597756 -0.25594953
0.2682881 0.087321766 -0.37150875 -0.10413695 0.71462303 -0.21389088 -0.14415948 -0.0870809
0.53390723 -0.23569179 0.21418689 0.45543087 0.39808702 -0.19444163 -0.46529394 0.42652938
-0.46918675 0.013945728 0.117150076 0.26995954 0.30579197 -0.46370396 0.3161205 0.35969463
-0.38473746 0.23625508 0.11887373 0.101174995 0.4385721 0.028583067 -0.25699833 -0.4597181
-0.39785355 -0.4548667 0.15277188 0.07002828 0.19371702 -0.21445613 -0.19959483 0.36089242
0.2830173 0.39147887 -0.31254345 0.38786763 -0.13836673 -0.34861124 0.21465246 0.09566716
-0.18660264 0.2831592 -0.4510194 -0.088551894 -0.35540625 -0.3807797 0.35877404 0.04287933
-0.43342897 -0.13761976 -0.13774505 -0.18173546 0.27170178 -0.13457635 0.14337549 -0.41703057
0.39763695 -0.32093832 -0.3340774 0.2468337 0.1873741 -0.19729264 -0.055397164 0.41222623
-0.047299705 -0.24363112 0.3332603 0.045529377 -0.19910125 -0.020803941 0.19582528 -0.3805379
-0.04605687 -0.19115114 -0.11234388 0.4458004 0.36728466 -0.39431557 -0.0645116 0.17391399
0.2624135 0.37382323 0.33433568 -0.29261032 0.31193185 0.24166004 -0.02218494 -0.32317802
-0.37726414 -0.23252629 0.35315716 0.35426772 -0.14341947 -0.4455074 0.064715356 0.35881972
-0.19544524 -0.23528111 0.21662654 0.13432844 -0.24105811 -0.093196884 -0.29418504 0.0102686705
0.47740966 -0.25863138 0.15701471 0.43569487 0.53507304 -0.25503132 0.17959724 -0.39751652
0.03222179 -0.2218694 -0.21172556 -0.14811318
00000000: 5c1b ccbe e329 403e a069 c53e 1334 68bd
00000010: b2b4 ecbe 7681 e6bd 55ac 15be 5185 a43e
00000020: f62b b0be 25e2 743e a6ef 933e c4f2 84be
00000030: 60e5 e2bd cf74 8b3d a9ae b23e 9a98 bcbe
00000040: d913 bdbb 3094 42be 38da 183e 2ac2 a03e
00000050: 12c2 893e b015 ecbe e9be 8b3d b47f 9a3d
00000060: 9a72 b03d 10d8 8d3e 71f0 88be e028 af3e
00000070: 08ac bebe dee6 3ebe fc61 2fbe 3d53 b1be
00000080: 56de 8c3e 3bf8 83bd 504c 253e 8701 df3e
00000090: 1f72 863e bb00 b73e c84e 8cbd 9d4e be3d
000000a0: 0b52 763e e4cd 363c 3b18 86be fb95 ed3e
000000b0: 1412 75be 2558 8fbe e3a4 ad3d 4eb0 483c
000000c0: 5a3c ea3d c8c8 cc3e 3863 e8bd d8f0 75bd
000000d0: b243 bebe 545c a23e efa5 cfbe 9e59 883e
000000e0: 2b26 193d d3d9 2b3b 7e37 8abe 8b76 13bf
000000f0: 9816 a93e 66cb 883e 4272 9ebe 290e 32be
00000100: 012c 903e b6c0 0cbc 4641 fb3d 8c78 923e
00000110: 6287 5b3e 443b 693e ffd2 9abd d10b 83be
00000120: 0f5d 893e c1d5 b23d 6536 bebe c145 d5bd
00000130: 89f1 363f 3606 5bbe 8b9e 13be 7957 b2bd
00000140: 25ae 083f 3059 71be cf53 5b3e 3c2e e93e
00000150: 10d2 cb3e b51b 47be 023b eebe 0f62 da3e
00000160: 3f39 f0be 9f7c 643c 61ec ef3d 2338 8a3e
00000170: c490 9c3e 9b6a edbe 8cda a13e e529 b83e
00000180: 4ffc c4be daec 713e 1274 f33d d634 cf3d
00000190: 868c e03e 0927 ea3c 4995 83be 2c60 ebbe
000001a0: 76b3 cbbe 4ae4 e8be 3b70 1c3e fd6a 8f3d
000001b0: c15d 463e 639a 5bbe 9662 4cbe e4c6 b83e
000001c0: a5e7 903e eb6f c83e b205 a0be 9696 c63e
000001d0: 02b0 0dbe 2c7d b2be dbcd 5b3e 25ed c33d
000001e0: c314 3fbe 3efa 903e 04ec e6be b25a b5bd
000001f0: cff7 b5be 8ff5 c2be 3bb1 b73e 3da2 2f3d
00000200: 67ea ddbe 32ec 0cbe 0a0d 0dbe dc18 3abe
00000210: 7f1c 8b3e 62ce 09be 06d1 123e 0885 d5be
00000220: 1297 cb3e 0752 a4be 310c abbe f9c1 7c3e
00000230: ffde 3f3e 1507 4abe 23e8 62bd 510f d33e
00000240: 56bd 41bd 707a 79be 18a1 aa3e 037d 3a3d
00000250: 33e1 4bbe 076d aabc 6c86 483e ddd5 c2be
00000260: 21a6 3cbd 20bd 43be 8c14 e6bd f33f e43e
00000270: bc0c bc3e bbe3 c9be a81e 84bd 8216 323e
00000280: 105b 863e c265 bf3e 0c2e ab3e 05d1 95be
00000290: 88b5 9f3e bb75 773e 31bd b5bc 9777 a5be
000002a0: c428 c1be 5f1b 6ebe 04d1 b43e 9462 b53e
000002b0: 8edc 12be 8c19 e4be 7c89 843d 38b7 b73e
000002c0: cc22 48be 88ed 70be 59d3 5d3e 658d 093e
000002d0: f0d7 76be 02de bebd 6c9f 96be ed3d 283c
000002e0: 0a6f f43e 556b 84be 77c8 203e 6613 df3e
000002f0: 8cfa 083f 7793 82be 57e8 373e 4987 cbbe
00000300: fffa 033d bb31 63be 96ce 58be fbaa 17be

convs.2.lin_r.bias f4 [14]
-0.041585438 -0.20167023 -0.064303316 0.05709241 0.19957016 0.086323984 0.1697643 -0.11432687
-0.0327998 -0.074498735 -0.01525208 -0.08971302 -0.17068738 0.025716634
00000000: 7e55 2abd a482 4ebe 75b1 83bd bbd9 693d
00000010: 1f5c 4c3e a1ca b03d b1d6 2d3e 3524 eabd
00000020: 1559 06bd cb92 98bd dce3 79bc 76bb b7bd
00000030: acc8 2ebe b1ab d23c

out_linear.weight f4 [2, 14]
-0.2529942 0.42581448 -0.092647284 -0.049766485 0.030167732 0.5097221 -0.2198216 -0.20314866
-0.19578353 -0.378179 0.33639538 0.5136366 -0.44567734 -0.17028528 -0.24105151 0.04078785
-0.48266822 -0.4292125 -0.17323574 -0.7469722 -0.3077669 -0.35148856 -0.3686602 -0.24058859
0.22171843 -0.13163641 -0.008500403 0.08680289
00000000: 7588 81be 5b04 da3e dcbd bdbd f1d7 4bbd
00000010: 5222 f73c 267d 023f ea18 61be 3406 50be
00000020: 7a7b 48be aea0 c1be 043c ac3e b07d 033f
00000030: d22f e4be 445f 2ebe 35d6 76be 2911 273d
00000040: 4a20 f7be bec1 dbbe b664 31be 9239 3fbf
00000050: a093 9dbe 4ff6 b3be 08c1 bcbe db5c 76be
00000060: 280a 633e b2cb 06be 4645 0bbc b7c5 b13d

out_linear.bias f4 [2]
0.34451765 -0.119203985
00000000: 9e64 b03e 3821 f4bd

bns.0.weight f4 [14]
1.0 1.0 1.0 1.0 1.0 1.0 1.0 1.0
1.0 1.0 1.0 1.0 1.0 1.0
00000000: 0000 803f 0000 803f 0000 803f 0000 803f
00000010: 0000 803f 0000 803f 0000 803f 0000 803f
00000020: 0000 803f 0000 803f 0000 803f 0000 803f
00000030: 0000 803f 0000 803f

bns.0.bias f4 [14]
0.0 0.0 0.0 0.0 0.0 0.0 0.0 0.0
0.0 0.0 0.0 0.0 0.0 0.0
00000000: 0000 0000 0000 0000 0000 0000 0000 0000
00000010: 0000 0000 0000 0000 0000 0000 0000 0000
00000020: 0000 0000 0000 0000 0000 0000 0000 0000
00000030: 0000 0000 0000 0000

bns.0.running_mean f4 [14]
0.0 0.0 0.0 0.0 0.0 0.0 0.0 0.0
0.0 0.0 0.0 0.0 0.0 0.0
00000000: 0000 0000 0000 0000 0000 0000 0000 0000
00000010: 0000 0000 0000 0000 0000 0000 0000 0000
00000020: 0000 0000 0000 0000 0000 0000 0000 0000
00000030: 0000 0000 0000 0000

bns.0.running_var f4 [14]
1.0 1.0 1.0 1.0 1.0 1.0 1.0 1.0
1.0 1.0 1.0 1.0 1.0 1.0
00000000: 0000 803f 0000 803f 0000 803f 0000 803f
00000010: 0000 803f 0000 803f 0000 803f 0000 803f
00000020: 0000 803f 0000 803f 0000 803f 0000 803f
00000030: 0000 803f 0000 803f

bns.1.weight f4 [14]
1.0 1.0 1.0 1.0 1.0 1.0 1.0 1.0
1.0 1.0 1.0 1.0 1.0 1.0
00000000: 0000 803f 0000 803f 0000 803f 0000 803f
00000010: 0000 803f 0000 803f 0000 803f 0000 803f
00000020: 0000 803f 0000 803f 0000 803f 0000 803f
00000030: 0000 803f 0000 803f

bns.1.bias f4 [14]
0.0 0.0 0.0 0.0 0.0 0.0 0.0 0.0
0.0 0.0 0.0 0.0 0.0 0.0
00000000: 0000 0000 0000 0000 0000 0000 0000 0000
00000010: 0000 0000 0000 0000 0000 0000 0000 0000
00000020: 0000 0000 0000 0000 0000 0000 0000 0000
00000030: 0000 0000 0000 0000

bns.1.running_mean f4 [14]
0.0 0.0 0.0 0.0 0.0 0.0 0.0 0.0
0.0 0.0 0.0 0.0 0.0 0.0
00000000: 0000 0000 0000 0000 0000 0000 0000 0000
00000010: 0000 0000 0000 0000 0000 0000 0000 0000
00000020: 0000 0000 0000 0000 0000 0000 0000 0000
00000030: 0000 0000 0000 0000

bns.1.running_var f4 [14]
1.0 1.0 1.0 1.0 1.0 1.0 1.0 1.0
1.0 1.0 1.0 1.0 1.0 1.0
00000000: 0000 803f 0000 803f 0000 803f 0000 803f
00000010: 0000 803f 0000 803f 0000 803f 0000 803f
00000020: 0000 803f 0000 803f 0000 803f 0000 803f
00000030: 0000 803f 0000 803f
